automatic_feedback_snumed-main/save/3-3_rnn_sp_100.pt (torch, 16018 bytes, 7 tensors)

emb_layer.weight f4 [100, 16]
000000 00 00 00 00 00 00 00 00 00 00 00 00 00 00 00 00
       0.0 0.0 0.0 0.0
000010 00 00 00 00 00 00 00 00 00 00 00 00 00 00 00 00
       0.0 0.0 0.0 0.0
000020 00 00 00 00 00 00 00 00 00 00 00 00 00 00 00 00
       0.0 0.0 0.0 0.0
000030 00 00 00 00 00 00 00 00 00 00 00 00 00 00 00 00
       0.0 0.0 0.0 0.0
000040 73 57 4d 3f f2 f2 40 bf 73 a9 15 bf d1 26 8c 3f
       0.8021156 -0.75370705 -0.58461684 1.0949346
000050 50 6d c0 bc cb 51 7e 3f a9 ed d3 be f8 9c f4 bf
       -0.023489624 0.99343556 -0.41392258 -1.9110403
000060 67 ec a1 3d b7 5a c6 be 05 4e 96 3f 39 64 be bf
       0.07906418 -0.38741085 1.174256 -1.4874336
000070 d4 7d 88 bf 6c dc 17 3e 9e 17 03 3f 80 28 80 bf
       -1.06634 0.14830178 0.5120791 -1.001236
000080 3e 9f 3e bf dc 1d 40 bd e9 25 88 3f 73 01 8a bf
       -0.74461734 -0.046903476 1.0636569 -1.0781692
000090 d3 a5 fa be 42 78 02 3f a9 cd f7 be 61 b6 d4 bf
       -0.4895464 0.5096475 -0.48399094 -1.6618158
0000a0 4a 6b 2e be 61 f0 84 bf ba 17 47 bf 04 31 53 3f
       -0.17033115 -1.0385858 -0.7777058 0.82496667
0000b0 0b db ee bf 7d c8 86 3f 7d 54 ed bc dc d4 ff 3e
       -1.8660597 1.0529934 -0.028970951 0.49967086
0000c0 17 b4 b8 3e 15 90 9f 3f cb 4b 1b 40 d0 41 b5 bf
       0.36074898 1.2465845 2.426501 -1.4160709
0000d0 eb 7d c0 3f 6f c8 6f be 90 60 82 3d e3 4f 57 3f
       1.5038427 -0.23416303 0.06366074 0.8410627
0000e0 f9 2e 7b bf f7 62 1c bf 71 7d b5 be 6b e6 02 bf
       -0.9811855 -0.6108851 -0.35447267 -0.5113284
0000f0 23 2c 1e bf 57 e4 c9 3e 7a 69 3a 3e 3b df 0e 3f
       -0.617861 0.39432022 0.18204299 0.5580937
000100 8f 22 1c be 32 57 1a 3f 85 44 b3 3f f0 aa 5e 3f
       -0.15247558 0.602893 1.4005286 0.8697958
000110 6c c0 0a bf 17 8f d4 3f 60 82 15 bf e9 e4 34 3e
       -0.5419986 1.6606168 -0.5840206 0.17665447
000120 5a 12 c1 3e 47 01 f7 3e 53 2b ad bd f7 1f 1d be
       0.37709314 0.48243162 -0.08455529 -0.15344225
000130 d8 c9 b4 3f 44 21 84 3e 46 e0 88 bf ec 1c e1 bf
       1.4124098 0.2580663 -1.0693443 -1.7586951
000140 0e 5d 43 bf 6f f9 69 be 40 bd bb bf b6 5c 5c 3e
       -0.76313865 -0.22849058 -1.466713 0.21519741
000150 ab 94 5c bf c7 12 ce bf c4 2b 91 bf b0 57 49 3f
       -0.8616435 -1.609948 -1.1341481 0.78649426
000160 bc 8c 8e 3d 74 26 9f bf 27 65 ac be e4 dd 17 3f
       0.06960437 -1.243361 -0.33670923 0.59322953
000170 e5 6b 00 bf 94 95 55 3f dd 86 94 3f 27 3a c3 3e
       -0.50164634 0.83431363 1.1603657 0.38130304
000180 4f 18 a3 bf cd 2e 3e bf 67 e2 fa bf b1 1d 29 be
       -1.2741793 -0.7429016 -1.9600343 -0.16515233
000190 cd da ba 3e 7f 39 24 bf 05 64 d3 3f e7 6c f5 bd
       0.36495057 -0.6415023 1.6514899 -0.11983662
0001a0 28 0c b2 3f 8f a0 5b 3f d2 aa 69 3d 0d 0c c9 bf
       1.390996 0.8579187 0.057047673 -1.5706803
0001b0 ae da 57 3f 11 e4 76 3d 38 1a b1 3d cc 85 9c bf
       0.84318054 0.060276095 0.08647579 -1.2228332
0001c0 50 80 f5 3d 36 9a 3a bf 46 fe 66 bf 0b b1 8c 3e
       0.11987364 -0.7289156 -0.9023174 0.27478823
0001d0 bc c1 dd be 92 15 ab be 6b 3d 98 3d 9e 55 82 bf
       -0.4331187 -0.33414894 0.074335895 -1.0182378
0001e0 79 12 e1 be 0b 6d 6a bf b7 8f b8 3f 34 8b 1f 3e
       -0.43959406 -0.91572636 1.4418858 0.15580446
0001f0 e2 b2 23 bd 23 ce 83 bf 36 48 1d bf 26 eb 20 c0
       -0.039965518 -1.0297283 -0.6143831 -2.5143523
000200 3d bf 66 3f 7b a7 c7 3f 27 02 4c bd 29 e6 9e bf
       0.90135556 1.5597986 -0.04980674 -1.2413989
000210 c1 d7 42 bf c6 f7 11 3f 50 ff b7 3e 69 d7 e6 be
       -0.76110464 0.570187 0.35936975 -0.4508622
000220 99 02 52 bd 00 e3 35 3f b8 eb 7c 3f 6c 68 32 3f
       -0.05127201 0.710495 0.9879718 0.69690585
000230 15 40 10 3f c7 8c b0 3e 81 c0 f4 3e ba 50 6c 3e
       0.5634778 0.34482405 0.4780312 0.2307767
000240 6e 82 a4 bf 2d 69 c8 3e 3f 86 05 3f 2c e4 60 bf
       -1.2852304 0.39142743 0.5215797 -0.8784816
000250 43 e5 a3 bf 49 60 22 c0 ee 24 94 3f a9 cd 37 bf
       -1.280434 -2.5371268 1.157377 -0.7179819
000260 fc e1 34 3d 64 32 a1 3f 0a c7 94 bf bc c9 84 3f
       0.044160828 1.2593503 -1.1623242 1.0374064
000270 1a 34 6f 3f d3 97 25 be 59 6a 2b 3c c8 34 f3 3e
       0.93438876 -0.16171198 0.010462367 0.47501206
000280 84 d8 99 3d 1a 8c 43 3d 0b 3f 94 3f af 0c e1 3e
       0.07512 0.047741033 1.1581739 0.4395499
000290 8d f7 42 3f 37 b4 99 3f 1c a5 aa 3f 4c 38 98 bf
       0.7615898 1.2008122 1.3331637 -1.189218
0002a0 5d ce 41 be 0e 06 77 3f 3d 8b 7a bf cb 8e 73 bf
       -0.18926378 0.96493614 -0.9786871 -0.9513976
0002b0 c7 91 70 be a3 48 03 3e 51 9e ae 3f 72 f1 39 bf
       -0.2349311 0.12820677 1.3642064 -0.7263404
0002c0 32 e6 15 3f 04 03 70 be cb 6b 17 bd 2c 18 46 bf
       0.58554375 -0.2343865 -0.036968034 -0.77380633
0002d0 97 cb 97 be b9 4f a2 3f 10 3c e5 3f b5 2c 4c 3e
       -0.29647514 1.268058 1.7908955 0.1993893
0002e0 33 20 97 bf 53 15 03 c0 75 cc 7f 3f a5 e0 eb 3d
       -1.1806701 -2.0481765 0.9992135 0.11517457
0002f0 a7 4e 88 bf 03 0d a2 bf 3e 20 83 3e 55 57 b6 be
       -1.0649003 -1.2660221 0.25610536 -0.35613504
000300 b7 e3 52 bf 2f da ae 3f 04 ed 00 40 dc dc ac bf
       -0.82378715 1.3660334 2.0144663 -1.3504901
000310 85 7c 7d be 64 00 27 3f f8 3d 4b bf 51 18 a8 bb
       -0.24754532 0.6523497 -0.7939143 -0.005129852
000320 de 93 c6 be 71 f0 6e bf e3 34 3f 3f ca c3 a3 be
       -0.3878469 -0.93335634 0.74690074 -0.31985313
000330 af 8c b7 be 21 c6 4d 3f e3 3e 3f 3f 14 b8 45 3f
       -0.3584952 0.80380446 0.7470533 0.77234006
000340 5e 29 85 3e 44 c7 0a c0 01 f1 0e be f2 c5 57 bf
       0.26008123 -2.1684122 -0.13959123 -0.84286416
000350 f9 70 d4 3f f1 a9 be 3f 20 7f e8 3e 19 12 11 3e
       1.6596977 1.4895612 0.4540949 0.1416706
000360 eb 0d 6a bf a2 bb 08 40 d1 05 f4 be 1a 6e 12 40
       -0.9142749 2.1364522 -0.47660688 2.28797
000370 ac 1a 03 c0 0c 60 ab be 30 fd cd 3d 58 b5 b4 bf
       -2.048503 -0.33471715 0.10058057 -1.4117842
000380 cb 23 6c 3f 6c 14 5e bf e0 e6 84 bf af 62 f1 bd
       0.92242116 -0.8674991 -1.0382957 -0.117864005
000390 b6 01 dd 3e a1 b2 9a 3f 3b a5 e8 3f 94 6d c0 3e
       0.43165368 1.2085763 1.8175424 0.375836
0003a0 38 fd 88 bf 59 d9 16 be 67 4b ff be 9b c1 b0 be
       -1.0702276 -0.14731349 -0.49862215 -0.3452271
0003b0 6f 92 9c be 9a 22 79 bf ca 56 51 3f 3d b5 8e 3f
       -0.3058047 -0.9731842 0.81773055 1.114906
0003c0 93 05 2f c0 c0 43 1a bf e4 b7 21 3f a5 49 a6 bf
       -2.7347152 -0.6025963 0.6317122 -1.2991225
0003d0 41 e0 b9 3f 33 87 dd 3f de 6b e4 be 77 d3 a0 be
       1.4521562 1.7306885 -0.44613546 -0.31411335
0003e0 9f cf 11 bf 13 43 57 be 99 89 38 bf 48 a9 71 3f
       -0.5695743 -0.2102168 -0.7208496 0.9439893
0003f0 6b dc 72 3f b2 08 7d 3f 26 dd 90 3e 46 2f 06 40
       0.9486758 0.98841393 0.28293723 2.0966353

rnn.weight_ih_l0 f4 [32, 16]
000000 a2 09 5c 3d f6 1f 01 3d da 61 a4 3d ce 7f 69 bc
       0.053720124 0.03152462 0.08026476 -0.014251662
000010 9b 2e ad 3d d6 1e cd 3d 3a 0c e5 bc 88 d7 36 3e
       0.08456155 0.10015647 -0.027959932 0.17855656
000020 c5 77 fe 3d 86 cf 5c bd 30 83 f1 3d d7 2f 93 bc
       0.12425188 -0.053908847 0.117926 -0.017967148
000030 79 98 17 3e 9d 97 02 3d 7e 8d db bd ac 12 58 3c
       0.14804257 0.03188287 -0.10720347 0.0131880455
000040 f6 11 3b 3d 7c 97 2d bd 5a 3c ca 3d 6e 91 7b 3c
       0.045671426 -0.042380795 0.098747924 0.015354497
000050 1f 8d d2 3c 73 03 25 3e 31 58 e4 3d 95 c0 ad 3d
       0.025702057 0.16114597 0.11149634 0.08483998
000060 eb 50 cc 3c 4e 55 1f 3d d1 3f 21 3d 23 15 19 3e
       0.024940928 0.038899712 0.0393675 0.1494947
000070 08 44 3a be ac d9 81 bd 5d ca b1 3d 84 c0 28 be
       -0.18190014 -0.06340346 0.08681176 -0.16479689
000080 21 09 33 be 4c 6b 81 bd 4d 2c 21 3e 00 ba ea 3d
       -0.17483951 -0.063192934 0.15739556 0.11461258
000090 11 4e 03 be eb 01 fb 3d b8 49 2c 3e 4e cf da bd
       -0.12822749 0.12256225 0.16824996 -0.106840715
0000a0 a1 c2 0b 3e 5b 78 88 bd 0b 97 8b bc 85 a2 11 be
       0.13648464 -0.06663581 -0.017039796 -0.14222153
0000b0 bf ea 4a bc 5a 64 6b bd 91 b7 13 3d 33 16 d1 3d
       -0.012385069 -0.05746875 0.036063734 0.10209312
0000c0 0e ce 15 3e 8e d8 17 3c 25 88 f6 bd fa 28 1a 3e
       0.14629385 0.009267939 -0.12037686 0.15054694
0000d0 fc 23 f3 3d 04 41 1d bd 32 3a 63 3d ee 85 03 3e
       0.11872098 -0.03839208 0.05547542 0.12844059
0000e0 eb 44 22 3e 7a ab 4f bd 39 8b 29 be d4 1e 07 3e
       0.15846603 -0.050700642 -0.16557015 0.13195354
0000f0 c5 a0 85 3d cd e9 1f bd e8 e7 ae bd a6 56 98 3d
       0.06524805 -0.03904133 -0.08540326 0.07438402
000100 4c 40 07 bd 13 89 cd 3b ac 15 16 be e8 aa d2 3d
       -0.033020303 0.006272444 -0.14656705 0.10286504
000110 4d 04 07 3e c3 8d fd bc 60 44 56 bd c1 03 6f 3d
       0.13185234 -0.030951386 -0.0523113 0.05835319
000120 67 3c 8d 3d 67 a8 ac bd 7a 97 2b 3d 78 c5 27 be
       0.068962865 -0.08430558 0.041892506 -0.16383922
000130 80 8f 0e 3e cb 0c 23 bd 92 69 01 3e 0c 21 b8 3d
       0.13921928 -0.039807122 0.12637928 0.08990678
000140 93 5c b7 3d 2a 37 9b bd a0 23 cd bd b6 84 5f bd
       0.08953204 -0.07578881 -0.100165606 -0.054569922
000150 95 a5 83 bc e9 c1 d9 bd 0c 0a e0 3d 00 f1 ae 3d
       -0.016070167 -0.106326886 0.10939416 0.08542061
000160 6a 27 c2 bd a4 58 7b bc 5f 0f 8e 3d ae cb a6 3d
       -0.09480174 -0.015340958 0.069365256 0.081443176
000170 0b 4e 28 be a6 aa ce 3d e2 36 cd 3d 69 af fb 3d
       -0.16436021 0.10091142 0.10020234 0.12289316
000180 8e d4 d3 bd 18 d6 dd bd 4a e1 3f 3e a3 5e 0b be
       -0.10343276 -0.10831851 0.18738285 -0.1361032
000190 8c 63 eb 3d fd 25 43 3c 25 14 5a bd a5 15 24 bd
       0.114935964 0.011910913 -0.053241868 -0.040059704
0001a0 19 c5 d6 3d 42 d6 4d bd 05 82 a7 bd 5b c4 2a 3e
       0.10486812 -0.05025316 -0.08179096 0.16676466
0001b0 e0 16 da bc 4c 33 26 be ff 94 b4 bd e0 e5 f6 bd
       -0.026622236 -0.16230506 -0.08817481 -0.12055564
0001c0 91 de 12 3d c7 42 ea 3d f6 00 31 3e c2 31 1f be
       0.035856787 0.11438518 0.17285523 -0.15546325
0001d0 6e 90 0a 3d 83 a3 72 3d 5f a1 57 bd ce 77 e7 bd
       0.033829145 0.05923797 -0.05264413 -0.11302148
0001e0 b1 92 bc 3c 90 80 ab 3d 78 b3 5b 3d 3f 20 39 3d
       0.023019167 0.08374131 0.05363795 0.045196768
0001f0 12 eb 8e bd 8f 16 b6 3d 74 78 ec 3c 65 e1 8c 3d
       -0.0697843 0.088910215 0.02886603 0.06878928
000200 50 49 40 3d 0e 0c e2 bd ae c3 29 bd 2f 02 9a bd
       0.046944916 -0.110374555 -0.04144638 -0.07519948
000210 a7 e5 c4 3d b6 ec 04 3e 85 8b 0f 3e 7f 94 0d 3d
       0.09614115 0.12980923 0.14018066 0.034565445
000220 25 e5 60 3d bf 02 1f 3e 4c 48 66 bc e0 a3 3a be
       0.05490603 0.15528391 -0.014055323 -0.18226576
000230 ba 63 62 3d e5 27 f2 3d 4f 99 77 3b fa 1f 54 3c
       0.055270888 0.118240155 0.0037780588 0.012947077
000240 3c 73 e8 bb f1 09 d7 3d b0 8e 03 3e 74 0d 33 3e
       -0.007093815 0.10499943 0.128474 0.174856
000250 ae 30 08 bd 1a 32 34 be 68 c1 14 be 36 ca 2d 3e
       -0.03324955 -0.17597237 -0.14526904 0.16971669
000260 2a a5 b6 3d 3e f8 0e 3e 4f a2 e7 bd 9d 6c e3 3d
       0.08918221 0.13961884 -0.11310255 0.11104701
000270 5e ec a0 bd e8 4c 1e 3e 3a 38 e6 3d 81 0a d7 3d
       -0.078575835 0.15459025 0.11241193 0.1050005
000280 eb a5 1d be 62 2e d4 bd ff e5 d0 3d f9 af 08 be
       -0.15395324 -0.10360409 0.10200118 -0.13348378
000290 44 20 74 ba 53 42 92 3d f5 22 2b bd 79 61 95 bd
       -0.0009312669 0.071415566 -0.041781384 -0.07293982
0002a0 36 4e 17 bd 31 1d 4d bd 34 ac 20 be e0 c6 94 3d
       -0.036939822 -0.050076667 -0.1569069 0.07264495
0002b0 fa a7 1b 3d 7c 94 2d bd 23 de 12 be 99 6f db bd
       0.03800199 -0.042377934 -0.14342551 -0.10714645
0002c0 fb d9 03 3d 24 c4 d5 3c b5 eb 34 3d 32 37 1e be
       0.032190304 0.026094504 0.0441701 -0.15450743
0002d0 73 67 3e bd bb 83 86 bd c4 de 37 3c fd 44 3b 3e
       -0.046485376 -0.06568094 0.011222545 0.18288036
0002e0 5d d3 e9 3c 1b 71 24 3c eb b7 c4 3c f2 ec 26 be
       0.028543169 0.010036732 0.02401348 -0.16301325
0002f0 d7 e6 0d be 5f 50 0d 3d 9b 69 bc bd c0 0a 13 3e
       -0.1385759 0.034500476 -0.0919983 0.1435957
000300 5c 2c 18 bd 8f 83 79 3c b8 83 b8 3d a0 8e 88 bd
       -0.03715168 0.01522912 0.09009498 -0.066678286
000310 3f 7e 07 3c 16 b2 7c bd c1 99 e5 bc 2c 73 35 bd
       0.0082698455 -0.061693273 -0.028027417 -0.04429929
000320 ca 0c 28 3e b0 85 08 3e 14 b7 eb 3d 43 d0 5c bc
       0.16411129 0.13332248 0.11509529 -0.013477388
000330 e2 c7 c6 bd d0 34 09 be a3 f0 d4 3c 7f e4 2b be
       -0.09706093 -0.13399053 0.02599365 -0.16786383
000340 dc 41 22 3e 89 c1 32 3e 55 2b 68 3d c6 25 ab 3d
       0.15845436 0.1745664 0.05668195 0.08356814
000350 2f 87 f0 3d 32 31 78 3d 62 74 26 3e 91 9b 1f 3e
       0.11744534 0.06059379 0.16255334 0.15586688
000360 d0 87 09 3e 0a df 9c bc e6 b8 05 bd c9 8e f9 bc
       0.13430715 -0.019149322 -0.032647036 -0.030463593
000370 ad 78 06 bd 9d 7d 2b be 9e 86 7b 3d 33 e2 12 3e
       -0.03282993 -0.16747136 0.061407678 0.143441
000380 04 2b 8f 3d 03 60 07 be 07 41 dd bd 18 63 19 bc
       0.069906265 -0.1322022 -0.108034186 -0.009362005
000390 00 d4 0e be 8b 04 d3 bd 7d a9 1d 3d fb e6 9d 3d
       -0.13948059 -0.10303601 0.038491715 0.07710072
0003a0 3a 3a 98 bb c8 66 ae 3d 97 0f a4 bd 16 06 d1 38
       -0.004645613 0.08515698 -0.08010786 9.96703e-05
0003b0 77 16 06 be 9a b7 9f bd fd 90 dd 3d 13 92 aa 3d
       -0.13094507 -0.07798691 0.1081867 0.08328643
0003c0 ad 72 09 be 15 51 ff bd 77 cb 09 3e 77 7e 1c 3d
       -0.13422652 -0.12466637 0.13456522 0.038206544
0003d0 27 24 80 3d 32 c2 d1 bd 22 c9 13 3d ce 2a 1c be
       0.062568955 -0.10242118 0.036080487 -0.15250704
0003e0 a2 ff 1f be 19 67 ad 3d 66 49 03 be fa 89 29 be
       -0.1562486 0.0846693 -0.12820968 -0.1655654
0003f0 54 36 14 3e 29 02 0a 3e e3 59 8c bd 26 69 15 3d
       0.1447385 0.13477387 -0.06853082 0.03647723

rnn.weight_hh_l0 f4 [32, 32]
000000 ff c3 95 bc 17 c5 8b bd 39 ee 2d be 41 5b 34 3e
       -0.018281935 -0.06824701 -0.16985406 0.17612936
000010 24 7c 0d be 02 cf 3c 3e 4d ba 93 bc 48 e5 2b be
       -0.13816887 0.18438342 -0.018033171 -0.16786683
000020 94 43 d3 3d 91 0d ba bd 88 72 ab bd e2 f2 23 bd
       0.10315624 -0.09084619 -0.083714545 -0.040026553
000030 89 a0 b1 3c f7 82 c1 3d 16 e9 16 bd c3 5b 13 3e
       0.021682994 0.09448808 -0.03684338 0.14390473
000040 ba f8 0f be f6 3b 44 bd 69 d2 81 3d 9c 28 82 3d
       -0.14059725 -0.047908746 0.06338961 0.06355402
000050 5a f2 ce 3d 21 53 05 3e 33 cb 0a 3c 26 3c f7 3d
       0.10104819 0.13019992 0.008471298 0.12072019
000060 be c9 89 bc 7b d5 ed 3d 5a f4 0e 3e b0 ef ea 3d
       -0.016819831 0.11612984 0.139604 0.11471498
000070 ae e7 02 be fa 8b a4 3d f8 c6 b4 3d a6 d9 ba bd
       -0.12783691 0.08034511 0.08827013 -0.091235444
000080 e1 e5 83 3d 81 eb 26 be 79 a9 13 be e2 74 ab 3d
       0.0644033 -0.16300775 -0.14420117 0.08371903
000090 5a ca 05 be 89 da 24 bd 39 b7 10 bc 14 87 d2 bc
       -0.13065472 -0.040247474 -0.008832746 -0.025699176
0000a0 35 1d ec 3d 88 af 05 be 87 d7 4b 3d c1 19 af bd
       0.11529008 -0.13055241 0.04976609 -0.08549834
0000b0 ea b5 a7 bd e6 d6 83 bd 20 a2 f4 bc a7 28 2f 3e
       -0.08188994 -0.06437473 -0.029862463 0.17105351
0000c0 20 75 0a be 32 95 e9 bc 91 34 08 3e a0 56 1b be
       -0.13521242 -0.028513525 0.13301302 -0.15169764
0000d0 6d 43 90 bd a2 be b6 3d 8b 59 92 bd 67 71 61 3d
       -0.070441104 0.08923079 -0.07145985 0.05503979
0000e0 97 6d 9b bd 4d 89 42 bd 34 7f 88 3d ab ec e9 3d
       -0.07589262 -0.04749422 0.06664887 0.11422094
0000f0 e2 9f 1d be ba c0 22 bd 6a c7 b5 bb a0 65 85 bd
       -0.15393022 -0.03973458 -0.0055474536 -0.06513524
000100 75 6c 9b bd 91 e2 73 3c d8 0f 7d bc 6d 2c 07 3d
       -0.07589046 0.014885561 -0.015445672 0.033001352
000110 2d ca 29 3e 40 cb 29 3e bf 5e 13 3e be 61 fe bc
       0.1658103 0.1658144 0.14391612 -0.031052466
000120 70 0d 37 3d c6 58 35 3e 89 8d ea bd fb 6f 61 3d
       0.04469055 0.17709646 -0.11452777 0.055038434
000130 05 5e 3b 3b 48 2c 08 3e bd d0 0c ba d9 ad 0b 3e
       0.0028589976 0.13298142 -0.00053716806 0.13640536
000140 c3 1d 2f be 4f e8 9b bc cf 7c e4 bd 81 a0 08 3e
       -0.17101197 -0.019031672 -0.11156618 0.13342477
000150 7e c0 db bd 68 e5 4f 3c 8a 73 0f 3e b1 e8 75 3d
       -0.10730074 0.012688972 0.14008918 0.060036365
000160 3e 7b 0e be 73 57 30 3e e6 8e de bd be 60 2a be
       -0.139142 0.17220859 -0.108670995 -0.16638467
000170 82 95 54 bc 32 9f d4 bd 35 b7 4f 3d dd b5 9a 3b
       -0.012975099 -0.103819266 0.05071183 0.004721387
000180 23 1d 61 bd b4 ad 25 3e 7e 69 e2 3c 83 c4 df 3d
       -0.054959428 0.16179544 0.027638193 0.109261535
000190 0b 59 0a be 07 fb e2 bd 1d ce 0f 3e ee c1 02 be
       -0.1351053 -0.11083036 0.1404347 -0.12769291
0001a0 c5 ee 4a 3c b0 51 78 bd 9e 35 9a 3d 84 23 60 bc
       0.012386029 -0.06062478 0.07529758 -0.013680343
0001b0 ef 27 07 3e 22 1d 12 3e 22 43 45 3d ac cf ba 3d
       0.13198827 0.14268926 0.048159726 0.091216415
0001c0 3a a3 89 3c 0e 5d 1a 3e 4a ff 32 be e4 48 f1 bd
       0.016801465 0.1507456 -0.17480198 -0.11781481
0001d0 53 99 06 3c 88 df 1f be 5d cf 8c 3d 43 6b 60 bd
       0.008215266 -0.15612614 0.06875489 -0.054789793
0001e0 91 2d 0c 3e 28 f6 f7 3d 7d a4 f2 bd f9 97 80 3d
       0.13689257 0.121074975 -0.1184778 0.062789865
0001f0 8e 0a a6 bd 2c 56 48 3d e0 07 ab bd d0 ca e7 bd
       -0.08107482 0.048910305 -0.083511114 -0.1131798
000200 7d 0d 24 3e b1 ec 68 3c 7a 68 0c 3d 82 f2 e4 3c
       0.1602077 0.014216588 0.034279324 0.027947668
000210 3f b0 d6 bb f4 02 98 3d 76 63 47 3d 72 86 b5 3d
       -0.006551772 0.07422438 0.048678838 0.08863534
000220 33 71 8b 3d ab 32 a5 3d e0 5c 0c 3e 88 fd af 3d
       0.068087004 0.08066305 0.13707304 0.08593279
000230 30 ff f5 3d f8 51 ef 3d 76 a3 3b 3c cb b7 9b 3d
       0.12011564 0.11685556 0.011452546 0.07603415
000240 d4 2a 02 be d8 5c 88 3d 9a b6 4d 3d 0a f7 59 3d
       -0.1271165 0.066583335 0.05022297 0.05321411
000250 f9 70 94 3c 14 f0 c9 3c f2 47 e3 3d ff 8c 03 be
       0.018120276 0.024650611 0.11097707 -0.12846754
000260 74 e5 47 3c 81 b9 14 3e 95 9c 67 bd 4a 54 85 3d
       0.012200702 0.14523889 -0.056545813 0.065102175
000270 15 30 16 3e 8e 86 f1 3d 69 fa 9a 3d 2a f0 d7 3c
       0.1466678 0.117932424 0.07567293 0.026359636
000280 64 be 6f bc 60 b2 20 bd 17 55 5d 3c 05 58 15 be
       -0.014632795 -0.03923261 0.0135090565 -0.14584358
000290 0b 54 86 3d 02 f8 b6 3d b5 e2 00 3c c0 aa f1 3d
       0.06558999 0.089340225 0.007866551 0.11800146
0002a0 59 5a 15 be 60 4f 78 bb d5 40 0a be 80 b3 2b 3c
       -0.14585246 -0.0037889108 -0.13501294 0.010479808
0002b0 ca a6 f3 bd 0b 2b 4c bd 12 cc a3 bd 27 bb f8 bd
       -0.11897047 -0.049845736 -0.07997908 -0.121450715
0002c0 91 2f d3 bd 0d e0 12 3e 6f a2 cd bd 86 ad ec 3c
       -0.10311807 0.14343281 -0.100407474 0.028891336
0002d0 ba ef d1 3b 79 87 85 bd 9b 1a 07 be 55 bf 30 3e
       0.0064067515 -0.0651998 -0.13193743 0.17260487
0002e0 77 c1 10 bd f6 5b 23 bd 8a c8 39 bd 4e c2 ad 3c
       -0.035340752 -0.039882623 -0.045357265 0.021210816
0002f0 f5 28 a9 3d ae 30 ae bd 80 53 09 be e9 94 de 3b
       0.08259765 -0.08505379 -0.13410759 0.006792654
000300 3d 13 9f 3d f1 ce 0b be f9 f6 0b 3e 7f 8f 6f 3d
       0.07767341 -0.1365316 0.13668431 0.058486458
000310 47 7c 8a bd f7 5e 2f 3e f6 5e 32 3d f4 a5 c9 bd
       -0.06761985 0.1712607 0.043547593 -0.09846106
000320 30 96 77 bd bb 83 a2 bb 45 11 0a bd 33 a1 65 bd
       -0.060445964 -0.004959551 -0.033707876 -0.056061935
000330 99 48 a3 bd 13 24 ac ba e2 79 f4 bc 40 35 30 3e
       -0.07972831 -0.001313331 -0.029843275 0.17207813
000340 e5 ff 28 3e 94 ae ad 3c 1d b8 31 3e 22 fb 25 ba
       0.16503866 0.02120141 0.1735539 -0.0006331672
000350 a3 9c 08 3c c1 60 2f be dd 57 b9 3d 5d 74 2b be
       0.008338126 -0.17126752 0.09049962 -0.16743608
000360 0e fc 2b be e3 77 ce 3d 24 b1 15 be 90 6b 07 3e
       -0.1679537 0.1008146 -0.14618355 0.13224626
000370 c8 04 b9 3d 86 00 d3 bd d9 bb 1b be de 57 12 bc
       0.09034115 -0.10302834 -0.15208377 -0.008932082
000380 05 78 5a 3d b9 09 de 3d 3d fb 86 3d 7c e5 ff bd
       0.053337116 0.10841698 0.06590889 -0.124949425
000390 4f f6 c9 3d bb e6 57 bd a6 53 32 3d 18 b4 85 bd
       0.09861433 -0.052710276 0.043536805 -0.06528491
0003a0 8b cf 3a 3d 1d a4 c6 3d f1 59 a8 bd 60 6f 5f bc
       0.045608085 0.09699271 -0.0822028 -0.013637394
0003b0 60 32 ee 3d b0 d9 0a be 25 0f 0e 3e 8d ea 21 be
       0.11630702 -0.13559604 0.13872965 -0.1581213
0003c0 70 93 1c be 58 e4 a0 bc 33 56 10 3d 25 82 cb bc
       -0.15290618 -0.019640133 0.035238456 -0.024842331
0003d0 dd 80 00 3e 34 c9 59 3d ec 75 08 be 5f 9f 09 be
       0.12549157 0.053170398 -0.13326234 -0.13439701
0003e0 88 6f 13 3e 3d c3 25 3e 28 89 e1 bb 74 fa dc bd
       0.14398015 0.16187759 -0.0068828054 -0.10789958
0003f0 ab 15 30 3e 1a 1c fc ba fc c6 db 3d 95 fe 1b 3e
       0.17195766 -0.0019234449 0.10731313 0.15233834

rnn.bias_ih_l0 f4 [32]
000000 dc fc dc 3d 9f 5b 0e 3e 27 0c 29 3e 0a d4 f0 bd
       0.107904166 0.13902138 0.16508542 -0.11759193
000010 d9 6b c4 3d 7b a3 b1 3b 3c ac 34 3d 62 4a 03 3d
       0.09590883 0.0054210997 0.044109568 0.03205336
000020 b8 6d ab bd 4b f6 33 bd 63 aa 68 3d ac d6 8b bd
       -0.083705366 -0.043936055 0.05680312 -0.06828055
000030 b4 02 cc bd 17 1c 1d 3e fd 94 96 b6 92 c3 58 3d
       -0.09961453 0.15342747 -4.487693e-06 0.052920885
000040 f7 9e 28 3e d2 1c 34 ba ae 59 a4 3d 77 72 33 3e
       0.1646689 -0.00068707496 0.080249175 0.17524134
000050 f5 fc 11 be 41 65 1f be 25 ea c1 bd 6c 61 32 3e
       -0.14256652 -0.15565969 -0.09468488 0.17419976
000060 26 29 d6 bd ca 38 01 3e 04 e0 19 be 2b bd b7 3c
       -0.10457067 0.1261932 -0.15026861 0.02242907
000070 b0 8f 1b 3e 86 79 15 be 72 6a 28 be 78 08 01 bd
       0.15191531 -0.14597139 -0.16446856 -0.031502217

rnn.bias_hh_l0 f4 [32]
000000 26 54 34 3d 80 90 15 be fb 12 52 3d 6a ba fb 3c
       0.044025563 -0.14605904 0.051287632 0.030728538
000010 18 cf 70 bd 61 60 60 bd 79 1f 22 bd a9 8d cc 3d
       -0.05879125 -0.054779414 -0.039580796 0.09987957
000020 6e 09 a8 bc 01 72 4f 3d 18 f9 91 3d c5 62 10 3d
       -0.020512309 0.050645832 0.07127589 0.035250444
000030 e4 d4 c5 3d b3 5f 1e 3d b8 04 09 3e 4d 2b d8 bd
       0.09659746 0.038665485 0.13380706 -0.10555134
000040 5b bb 73 3b 56 22 e0 3d 56 2b e8 3d 79 23 86 bc
       0.003719053 0.10944049 0.11336391 -0.016374337
000050 71 13 7e bd 79 99 b0 3c ef 74 af 3c 03 f8 1f 3e
       -0.06203026 0.021557556 0.021418063 0.15621953
000060 2e 1a 5d bd ca 8f 20 3b 5b bb f6 bd 78 b9 2b bc
       -0.053980045 0.0024499767 -0.12047454 -0.010481231
000070 a5 17 07 be eb fe 0f be e3 a5 25 bd 18 04 9c 3d
       -0.13192613 -0.14062087 -0.040441405 0.07617968

classifier.weight f4 [5, 32]
000000 fa 85 06 3d 46 2e 9c bd c9 20 02 bd a3 33 9c bd
       0.032842614 -0.076260135 -0.031769548 -0.076270364
000010 b1 ec df bd 9a 73 b0 3d bd bc f2 3d 33 28 87 bd
       -0.10933817 0.08615799 0.11852405 -0.06599464
000020 00 38 f5 bb f3 1a 92 bc c1 79 10 3d 70 1f 08 3e
       -0.0074834824 -0.017835116 0.035272364 0.13293242
000030 9f 37 54 bd 00 a1 1a 3e c6 09 34 3d 4f 55 09 be
       -0.051810857 0.15100479 0.043954633 -0.13411449
000040 46 6d 6b 3d 18 09 05 3d 1c c6 99 bd 6a 33 26 3d
       0.05747726 0.032479376 -0.075084895 0.040576376
000050 58 27 36 bd 69 f3 02 3d f2 0c 0f 3c f9 e6 54 bd
       -0.044471115 0.031970415 0.008731114 -0.051978085
000060 f5 1a 1a 3e 35 a2 89 bd ea b5 68 3d df 1c 21 be
       0.15049346 -0.06720392 0.05681411 -0.1573367
000070 5a 4d cc bc 35 cf 01 3e e1 c5 94 bd 6a 9e c1 3d
       -0.024939228 0.126767 -0.07264305 0.09454043
000080 49 41 2f 3e 23 c3 34 3e 53 a2 da 3d 5b 89 10 be
       0.17114748 0.17652564 0.10675492 -0.14114897
000090 4b 57 0a 3e dd c0 c6 bd 7e 26 14 3b 00 2b 2d 3d
       0.13509862 -0.097047545 0.002260595 0.042277336
0000a0 40 f0 82 3b fb 96 4b 3e f6 0b 23 3e cf d0 3b bd
       0.003995925 0.19881813 0.15922531 -0.045853432
0000b0 0f 6b 2f bd 7d 87 1a 3d 57 57 9d 3d 73 05 78 bc
       -0.04282671 0.037726868 0.076826744 -0.015138018
0000c0 c9 90 0e 3e bb 03 19 3e ad 6d 54 be e1 2c 98 3d
       0.13922419 0.1494283 -0.20744963 0.07430435
0000d0 60 a2 f7 3d 74 75 cd 3b b5 f9 11 3d 7a 78 a4 3c
       0.120915174 0.006270105 0.03563853 0.020076979
0000e0 91 c7 31 3d 49 b7 0b bd 31 64 ac bd f2 31 7f bd
       0.043403212 -0.03411034 -0.084175475 -0.06230349
0000f0 bc 14 f9 ba 7b 72 20 be b1 66 04 be 5c 0e 4d bd
       -0.0019003372 -0.15668671 -0.12929799 -0.050062522
000100 af 3e 89 3d 4d a6 44 bb 69 bb 3a bd 3d 74 26 3d
       0.06701409 -0.003000635 -0.045588885 0.040638197
000110 ad c7 c1 3d ea 96 9b 3d cb ff dd 3d a3 f9 c2 3c
       0.09461913 0.07597144 0.10839804 0.023800677
000120 30 c3 10 3e 46 72 dc bc 1d 63 08 be 84 75 a0 3d
       0.14136958 -0.026909959 -0.13319059 0.07834914
000130 a7 e9 3f be 8a c6 18 bd ba 34 06 3e c7 14 81 bd
       -0.18741475 -0.037298717 0.13106051 -0.06302791
000140 ff c8 ac 3d 47 7e 06 be 64 76 24 bd 77 45 43 3d
       0.084367745 -0.13134108 -0.04015197 0.04767367
000150 a2 c2 40 bc 9f 65 9e bd 74 fb 99 3d fb 82 fb 3c
       -0.011765154 -0.077342264 0.07518664 0.030702105
000160 dc 67 a7 3d e2 99 8c bd 1e 74 45 3e 15 07 1a 3e
       0.081741065 -0.06865288 0.19282576 0.15041764
000170 9d 20 2a be 84 20 b8 3d d8 fc ab bd d9 a1 e1 bd
       -0.16614003 0.08990577 -0.083978355 -0.11017198
000180 28 40 68 bc f8 ef d3 3d bd f9 ef bd e5 98 a7 bd
       -0.014175452 0.10348505 -0.11717556 -0.08183459
000190 d9 a8 a7 3c d4 a9 a6 3d 56 b6 3f be 8a 73 50 be
       0.020466255 0.08137861 -0.187219 -0.20356575
0001a0 b0 23 aa bd ad fe 3e bd 49 0c 99 bd a5 fd 9e bc
       -0.08307588 -0.046629597 -0.07473046 -0.019408057
0001b0 d2 77 52 3c 8b 77 a9 3d e2 7d 12 3e 95 75 8c bd
       0.01284595 0.08274754 0.14305833 -0.068583645
0001c0 a6 37 63 be 35 8c 43 bd ef 9d 9e bd 75 fd 15 be
       -0.22189197 -0.047741134 -0.07744967 -0.14647467
0001d0 02 2e 56 bd bc 6e db bb af 18 56 3d b0 75 9b bd
       -0.05228997 -0.00669655 0.052269634 -0.075908065
0001e0 8e 49 3b ba 43 db eb 3d f9 41 6e 3d 54 dd f3 3d
       -0.00071444444 0.1151643 0.058168385 0.11907449
0001f0 0c 7f 04 bd 3b b9 a1 bb a1 19 0b 3e ac ab 21 bd
       -0.032347724 -0.0049354113 0.13583995 -0.03947036
000200 b6 52 b4 bd 3d 1f 22 be 3d 9c 34 3d d8 dd d5 3d
       -0.08804838 -0.15832229 0.044094313 0.10442704
000210 c2 8f ba 3d 8b 96 c8 3d 91 b8 37 bd ca 77 dd 3d
       0.09109451 0.09794339 -0.04485375 0.108138636
000220 34 11 b6 bd 26 17 88 3c f6 ea 44 bc 7c c8 96 bd
       -0.0889 0.0166126 -0.01201891 -0.07362458
000230 58 c9 04 3e 0a b8 e1 bd 9d 9a 0f 3e dd c0 a8 bb
       0.12967432 -0.11021431 0.14023824 -0.005149944
000240 80 85 1f be 75 b1 d1 3b 7e 97 54 bd 88 05 00 be
       -0.1557827 0.0063993284 -0.051902287 -0.1250211
000250 9d a3 32 3e d5 4c 19 3e ef ce c0 bd 61 38 fd bd
       0.17445226 0.14970715 -0.094144695 -0.12364269
000260 f8 ed 63 bb 3a 54 12 3d 2c 88 2b be 80 4b 5a bd
       -0.0034779292 0.035724856 -0.16751164 -0.05329466
000270 93 3c 0d be 47 c1 0a be 86 ad e4 bd 1c 74 1e 3d
       -0.13792638 -0.13550292 -0.111659095 0.03868495

classifier.bias f4 [5]
000000 38 bc 95 bc 08 c8 c5 3d 8a de 0d 3e 98 2f 65 be
       -0.018278226 0.096572936 0.13854423 -0.22381437
000010 7c d3 94 3d
       0.072669
