save/1-1_kc_att_sp_70.pt (torch, 192868 bytes, 7 tensors)

emb_layer.weight f4 [70, 100]
0.0 0.0 0.0 0.0 0.0 0.0 0.0 0.0
0.0 0.0 0.0 0.0 0.0 0.0 0.0 0.0
0.0 0.0 0.0 0.0 0.0 0.0 0.0 0.0
0.0 0.0 0.0 0.0 0.0 0.0 0.0 0.0
0.0 0.0 0.0 0.0 0.0 0.0 0.0 0.0
0.0 0.0 0.0 0.0 0.0 0.0 0.0 0.0
0.0 0.0 0.0 0.0 0.0 0.0 0.0 0.0
0.0 0.0 0.0 0.0 0.0 0.0 0.0 0.0
0.0 0.0 0.0 0.0 0.0 0.0 0.0 0.0
0.0 0.0 0.0 0.0 0.0 0.0 0.0 0.0
0.0 0.0 0.0 0.0 0.0 0.0 0.0 0.0
0.0 0.0 0.0 0.0 0.0 0.0 0.0 0.0
0.0 0.0 0.0 0.0 0.30478144 -0.8224989 1.648224 -0.93513274
-0.8178211 -0.33159932 -0.03526523 -0.045700785 -1.0332392 0.15616965 0.5082049 0.7109318
-1.1259258 0.79846436 0.08131681 0.91943765 -0.6867283 0.022327028 0.16547133 0.7347978
-0.10611514 0.34337252 1.3837379 0.4773409 -0.1376245 0.5867817 -0.19702351 -0.60453784
0.3796475 0.60353357 1.0226394 -0.07615135 0.28982595 0.7594604 -0.9135325 0.8834566
-0.050219394 0.873099 0.16461256 0.26196933 -0.63959897 0.4870706 -0.48986357 0.72668415
-0.5964305 0.09837775 0.36833373 2.3116395 -0.057647936 -0.045291603 0.8259952 1.0934106
0.5300977 0.55608773 -0.66808176 -2.2919123 1.1317858 -1.2531698 0.181752 -0.38806495
1.4289222 0.55762273 0.7848306 -0.3090256 0.24567477 -1.1380363 -0.5646838 1.1621598
-1.0110576 0.72235376 0.7237804 -0.12686099 0.32073525 -1.7057807 1.6522934 -0.3437769
0.3681096 -0.35574338 -0.56481975 0.36483783 -0.16397706 1.9435135 -0.23910293 0.3279987
0.62862694 0.07430776 0.05549703 -1.8046995 0.22081818 1.2061673 0.4147951 -1.30865
0.18932584 -0.61675084 -0.61984587 1.6349813 -1.343715 0.49213627 -0.5166928 0.2556214
0.72325945 0.020698214 -0.18612374 1.6206843 -0.58093625 -0.16413496 0.654415 1.3538454
-0.38843468 -0.7018642 0.65393984 1.3750628 0.15447386 -0.905443 -1.6014986 -0.3549254
-0.8460585 1.9340976 -1.3550786 2.1220424 -1.310786 -0.11197269 -0.70764774 1.1658437
-1.2526528 0.41082564 -0.33772042 -0.2428612 -0.54905874 0.50912327 1.1302615 0.58117473
-0.24058005 2.5341284 -0.5392654 -1.7840273 -0.55504584 -1.2020077 -0.3838141 1.1865188
1.5094769 2.1065886 -0.43143016 1.7048317 -1.7398381 -1.0633342 -0.90263635 -2.042058
1.4985553 0.7628499 -0.34359345 0.3119567 1.4452913 0.6728168 1.284696 -0.7878975
00000000: 0000 0000 0000 0000 0000 0000 0000 0000
00000010: 0000 0000 0000 0000 0000 0000 0000 0000
00000020: 0000 0000 0000 0000 0000 0000 0000 0000
00000030: 0000 0000 0000 0000 0000 0000 0000 0000
00000040: 0000 0000 0000 0000 0000 0000 0000 0000
00000050: 0000 0000 0000 0000 0000 0000 0000 0000
00000060: 0000 0000 0000 0000 0000 0000 0000 0000
00000070: 0000 0000 0000 0000 0000 0000 0000 0000
00000080: 0000 0000 0000 0000 0000 0000 0000 0000
00000090: 0000 0000 0000 0000 0000 0000 0000 0000
000000a0: 0000 0000 0000 0000 0000 0000 0000 0000
000000b0: 0000 0000 0000 0000 0000 0000 0000 0000
000000c0: 0000 0000 0000 0000 0000 0000 0000 0000
000000d0: 0000 0000 0000 0000 0000 0000 0000 0000
000000e0: 0000 0000 0000 0000 0000 0000 0000 0000
000000f0: 0000 0000 0000 0000 0000 0000 0000 0000
00000100: 0000 0000 0000 0000 0000 0000 0000 0000
00000110: 0000 0000 0000 0000 0000 0000 0000 0000
00000120: 0000 0000 0000 0000 0000 0000 0000 0000
00000130: 0000 0000 0000 0000 0000 0000 0000 0000
00000140: 0000 0000 0000 0000 0000 0000 0000 0000
00000150: 0000 0000 0000 0000 0000 0000 0000 0000
00000160: 0000 0000 0000 0000 0000 0000 0000 0000
00000170: 0000 0000 0000 0000 0000 0000 0000 0000
00000180: 0000 0000 0000 0000 0000 0000 0000 0000
00000190: 500c 9c3e 4a8f 52bf 01f9 d23f dc64 6fbf
000001a0: b95c 51bf 63c7 a9be 4672 10bd bf30 3bbd
000001b0: 2f41 84bf f0ea 1f3e b719 023f a0ff 353f
000001c0: 561e 90bf 2968 4c3f 6d89 a63d 4460 6b3f
000001d0: 6dcd 2fbf 2ce7 b63c 5171 293e b51b 3c3f
000001e0: e552 d9bd 86ce af3e 531e b13f 0766 f43e
000001f0: 70ed 0cbe 5337 163f 88c0 49be fec2 1abf
00000200: 2861 c23e 2d81 1a3f d9e5 823f 3df5 9bbd
00000210: 1164 943e ff6b 423f 44dd 69bf 362a 623f
00000220: dab2 4dbd 6b83 5f3f 3290 283e d820 863e
00000230: c2bc 23bf 5161 f93e 66cf fabe f907 3a3f
00000240: abaf 18bf 467a c93d 3d96 bc3e e7f1 1340
00000250: 3e20 6cbd b083 39bd 6c74 533f e1f4 8b3f
00000260: 7cb4 073f c45b 0e3f 6807 2bbf b1ae 12c0
00000270: 5bde 903f de67 a0bf 321d 3a3e 73b0 c6be
00000280: ece6 b63f 5dc0 0e3f a8ea 483f 9a38 9ebe
00000290: 2b92 7b3e 2cab 91bf 1e8f 10bf a7c1 943f
000002a0: 566a 81bf 2dec 383f ac49 393f d9e7 01be
000002b0: 6937 a43e 0657 dabf 5a7e d33f 8703 b0be
000002c0: dd78 bc3e ff23 b6be 0798 10bf 06cc ba3e
000002d0: 9ae9 27be 0dc5 f83f 66d7 74be 72ef a73e
000002e0: b2ed 203f ab2e 983d db50 633d 6500 e7bf
000002f0: 291e 623e b163 9a3f 0660 d43e d881 a7bf
00000300: a2de 413e 62e3 1dbf 38ae 1ebf 1147 d13f
00000310: dafe abbf 49f9 fb3e fb45 04bf cfe0 823e
00000320: 8827 393f 4d8f a93c 3997 3ebe 9572 cf3f
00000330: 3db8 14bf ff12 28be be87 273f ce4a ad3f
00000340: e9e0 c6be 5fad 33bf 9a68 273f 0f02 b03f
00000350: 652e 1e3e 1dcb 67bf e8fd ccbf c8b8 b5be
00000360: 4a97 58bf 8390 f73f 3773 adbf 8bcf 0740
00000370: d6c7 a7bf f051 e5bd 6728 35bf 5e3a 953f
00000380: ed56 a0bf bd57 d23e b1e9 acbe 9bb0 78be
00000390: 1d8f 0cbf e755 023f 69ac 903f dec7 143f
000003a0: 9e5a 76be 292f 2240 4c0d 0abf 025b e4bf
000003b0: 7c17 0ebf 63db 99bf 4883 c4be d9df 973f
000003c0: 8a36 c13f 59d2 0640 6ae4 dcbe ed37 da3f
000003d0: 04b3 debf 561b 88bf 2d13 67bf 14b1 02c0
000003e0: a9d0 bf3f 224a 433f 7beb afbe cab8 9f3e
000003f0: 4eff b83f b93d 2c3f eb70 a43f a7b3 49bf

att.in_proj_weight f4 [300, 100]
-0.044431265 0.07493526 0.045461174 0.113796644 -0.097769514 0.069016 0.061448883 0.10291664
-0.090441525 -0.103983514 -0.08454365 -0.06484583 -0.11308662 -0.11875402 0.038152907 0.04139395
0.04019394 0.06144331 0.016844794 0.060038876 -0.009872131 -0.08571695 -0.0022733472 -0.032073475
0.096709564 -0.047701366 -0.040830743 0.077135414 -0.00010987586 -0.09678721 0.09293846 -0.01731075
-0.080066115 0.04072573 0.10543118 -0.030424166 -0.06501925 -0.031702004 -0.056769952 -0.08760693
0.10014939 -0.089144796 0.119602226 0.08679295 -0.07379362 -0.04859478 -0.09866488 0.12236925
-0.09886295 0.06506127 0.093550764 0.015483705 0.028431123 -0.08568026 -0.041578565 -0.117662154
0.05264178 -0.0068879714 0.057845123 -0.09939271 -0.08334802 0.045060955 0.105010025 0.089527465
0.09740458 0.09650914 -0.09806335 -0.039326742 0.088455774 -0.0595748 0.118166514 0.016166026
-0.07210553 0.08561671 -0.10286847 0.03524561 0.053186346 0.10682127 -0.08659947 -0.03772062
0.09734126 -0.07737218 0.083748534 -0.057624247 0.07468624 0.01795084 -0.00026608873 -0.0770982
-0.041328687 -0.070510566 0.037647013 0.091625296 0.021040551 0.0647489 0.0316107 -0.07913264
-0.10583062 -0.09702298 0.08485262 0.10858321 -0.09784204 -0.0535702 -0.009263384 0.115385756
0.10829186 0.026308773 0.11941443 -0.09374386 0.065080024 -0.017178807 0.029040035 0.03210715
-0.09934404 0.07301151 0.061758988 0.10977896 0.034796134 -0.0024572457 -0.031907044 -0.0064428803
-0.05431933 0.07040923 0.11958806 -0.0017421563 -0.018552776 0.072142005 -0.04993957 -0.029093456
-0.080155015 -0.11371423 0.053562604 -0.0095806895 0.09651363 -0.124338046 -0.12318131 -0.11249696
-0.0044497764 0.046885684 0.07160664 0.0463932 -0.029447699 -0.10043897 0.043456506 -0.052210424
0.017353797 -0.07200904 -0.06883656 -0.116644084 0.043013055 -0.117539495 -0.09468717 -0.07382631
-0.10663003 0.010127497 -0.112480596 -0.04942825 -0.07417845 0.105859295 0.023566464 0.041783527
-0.091443464 -0.030822208 0.10200485 0.0005311074 0.07136285 0.106208935 0.023518756 0.11037884
-0.11264068 -0.028572708 -0.057956398 -0.032650437 -0.0069390177 0.010430441 0.0068536787 -0.069484524
-0.072310016 -0.08197615 -0.014637636 0.06509883 0.040785678 -0.032272223 0.030586768 0.01422127
0.027414057 0.0076922677 0.086826034 0.032241635 -0.00948148 -0.03659138 -0.040305663 0.07886939
0.027987756 -0.09616978 -0.08794452 -0.0036542444 0.077613205 0.021356057 0.017112965 0.0071817767
-0.048894014 -0.020130975 0.064369924 -0.011365475 0.033808358 -0.10743281 0.094454095 0.12035751
-0.11523999 0.07420052 -0.09053536 -0.118541956 0.11844829 -0.098795906 -0.12040359 -0.09828902
0.073698685 -0.014684383 -0.040009573 -0.04940906 0.03322406 0.058523215 0.048338432 -0.004011328
-0.101910986 -0.120191276 0.03413463 -0.0770904 0.022734033 -0.041104373 0.017847193 -0.044280022
-0.10324615 -0.073310986 -0.028540857 -0.12119834 -0.10786901 0.092226654 -0.036908146 -0.011245044
0.07727214 -0.017701734 -0.09333734 -0.03290512 0.036529057 0.1086455 0.11577938 0.0045608515
-0.1016689 -0.07594116 0.029456396 0.09886183 -0.017367546 -0.08508821 -0.034891613 0.047366865
00000000: 8ffd 35bd a877 993d 7f35 3a3d 370e e93d
00000010: 623b c8bd 4358 8d3d d3b1 7b3d f6c5 d23d
00000020: 6839 b9bd 4ff5 d4bd 3925 adbd e4cd 84bd
00000030: f599 e7bd 4f35 f3bd 3946 1c3d b48c 293d
00000040: 67a2 243d fbab 7b3d 18fe 893c 53eb 753d
00000050: b8be 21bc 5e8c afbd 70fc 14bb 7a5f 03bd
00000060: aa0f c63d 8262 43bd 233e 27bd 2cf9 9d3d
00000070: 276d e6b8 5f38 c6bd 8556 be3d 46cf 8dbc
00000080: b4f9 a3bd 06d0 263d 4dec d73d 1a3c f9bc
00000090: d028 85bd f6d9 01bd 9c87 68bd 436b b3bd
000000a0: 201b cd3d 8c91 b6bd 03f2 f43d 81c0 b13d
000000b0: 1c21 97bd 520b 47bd d010 cabd bb9c fa3d
000000c0: a978 cabd d83e 853d 8b97 bf3d 5eaf 7d3c
000000d0: 63e8 e83c 2279 afbd 494e 2abd dbf8 f0bd
000000e0: e89e 573d 7eb4 e1bb 02ef 6c3d 688e cbbd
000000f0: 5eb2 aabd d691 383d 7f0f d73d 2d5a b73d
00000100: 0d7c c73d 96a6 c53d 70d5 c8bd 1415 21bd
00000110: 4d28 b53d b504 74bd 4901 f23d 9d6e 843c
00000120: 10ac 93bd d057 af3d b4ac d2bd b35d 103d
00000130: edd9 593d 1cc5 da3d 105b b1bd f080 1abd
00000140: db5a c73d 4e75 9ebd 5a84 ab3d 6707 6cbd
00000150: 19f5 983d a40d 933c d381 8bb9 a9e5 9dbd
00000160: 4548 29bd d867 90bd c133 1a3d 0ba6 bb3d
00000170: 3c5d ac3c 129b 843d 397a 013d 4b10 a2bd
00000180: b9bd d8bd fcb3 c6bd 36c7 ad3d e060 de3d
00000190: 6861 c8bd 6d6c 5bbd 73c5 17bc 5e4f ec3d
000001a0: 1fc8 dd3d 7f85 d73c 8d8f f43d c8fc bfbd
000001b0: ad48 853d 92ba 8cbc 5ee5 ed3c c982 033d
000001c0: e374 cbbd 0f87 953d fef6 7c3d cbd3 e03d
000001d0: 6486 0e3d be09 21bb f6b0 02bd cc1e d3bb
000001e0: f27d 5ebd b732 903d 96ea f43d 1159 e4ba
000001f0: fefb 97bc 30bf 933d 6f8d 4cbd 6655 eebc
00000200: 5028 a4bd 02e3 e8bd 7664 5b3d 53f8 1cbc
00000210: f0a8 c53d f2a4 febd 7c46 fcbd ce64 e6bd
00000220: 6ecf 91bb 340b 403d 81a6 923d cc06 3e3d
00000230: 4d3c f1bc f2b2 cdbd 73ff 313d 99da 55bd
00000240: 8d29 8e3c 7a79 93bd 2ffa 8cbd 18e3 eebd
00000250: 752e 303d 8cb8 f0bd 59eb c1bd 4032 97bd
00000260: d860 dabd cded 253c 3a5c e6bd 4775 4abd
00000270: dfea 97bd c2cc d83d 750e c13c 3425 2b3d
00000280: b646 bbbd db7e fcbc ebe7 d03d 043a 0b3a
00000290: b026 923d 1284 d93d 68aa c03c 4d0e e23d
000002a0: 28b0 e6bd 5011 eabc b063 6dbd 77bc 05bd
000002b0: b360 e3bb 71e4 2a3c d394 e03b e74d 8ebd
000002c0: 4617 94bd 1de3 a7bd b2d2 6fbc 8952 853d
000002d0: e20e 273d e12f 04bd 1a91 fa3c 5400 693c
000002e0: 7293 e03c 6b0f fc3b d9d1 b13d ce0f 043d
000002f0: 3658 1bbc d8e0 15bd 8d17 25bd 4686 a13d
00000300: 9446 e53c a9f4 c4bd 421c b4bd 0c7c 6fbb
00000310: acf3 9e3d e6f2 ae3c 7d30 8c3c 1c55 eb3b
00000320: 1745 48bd b7e9 a4bc 61d4 833d 4236 3abc
00000330: a27a 0a3d bc05 dcbd 2671 c13d 007e f63d
00000340: f202 ecbd 71f6 973d 9a6a b9bd 20c6 f2bd
00000350: 0495 f23d 8255 cabd 2896 f6bd c14b c9bd
00000360: 56ef 963d c496 70bc 14e1 23bd 2861 4abd
00000370: f415 083d 0ab6 6f3d 85fe 453d 7571 83bb
00000380: b5b6 d0bd d826 f6bd c1d0 0b3d 92e1 9dbd
00000390: b93c ba3c 0f5d 28bd 4734 923c f85e 35bd
000003a0: b872 d3bd 1224 96bd 84ce e9bc d636 f8bd
000003b0: 6dea dcbd 54e1 bc3d ff2c 17bd 223d 38bc
000003c0: db40 9e3d 3a03 91bc a627 bfbd 85c7 06bd
000003d0: 7e9f 153d 8881 de3d bd1d ed3d 3273 953b
000003e0: c937 d0bd 0a87 9bbd 8a4e f13c 1278 ca3d
000003f0: 6246 8ebc ba42 aebd 82ea 0ebd c203 423d

att.in_proj_bias f4 [300]
0.0017543165 -0.0015662705 -0.00075979106 -0.0023810943 -0.0002925799 -0.00014643434 -7.6496675e-05 0.00069839327
-0.0015953204 -0.0032309724 -0.0010391636 0.001381259 0.00072149857 0.0018024647 -0.0005557777 -0.0015166901
0.0022376985 -0.0009624001 0.004247826 -0.0011413667 0.00066156907 -0.0012261698 -0.0012262205 -0.00035480317
-0.0008304895 -0.0039689154 0.009608414 0.003435796 -0.0034057472 0.0019289621 0.0022807738 0.0007037232
0.0054325745 9.3065144e-05 -0.0008771534 -0.0010096222 -0.0050124535 0.0062843384 0.0010136947 0.004712122
0.004104655 -0.0065590693 -0.002595474 -0.0028393304 0.0018959745 0.009421992 0.006523547 0.005574146
0.0024772303 -0.0025637443 0.000514921 0.0003079377 -0.00036243506 -0.00021053593 0.004223498 0.0009193794
0.0033489265 -0.0005292354 0.00053569145 0.0016132669 -0.004772164 -0.0013369699 0.0025761123 0.002684162
-0.003512632 0.0035127392 0.0035248748 0.0022475428 -0.002526716 -0.0014534746 0.00076528743 0.0026691295
-0.0020952062 -0.0002577796 -0.002049582 0.0016539643 -0.00086322014 -0.0026673195 0.0035690337 0.006052268
0.0042850515 0.0007184256 -0.0025524015 -0.0025522213 -0.0004949364 -0.0039448165 0.0030425773 0.002321089
0.00096533087 -0.0055485456 -0.0026330855 -0.0026473077 0.0040187 -0.0008308051 -0.000222607 0.0053370134
0.003831189 0.004187332 0.0012602328 -0.0008112245 -4.352027e-11 2.6224549e-11 -4.578159e-11 -1.7567739e-10
5.649382e-11 1.6330558e-11 -9.247309e-12 5.1884125e-11 7.5648474e-11 -1.4715082e-11 7.8523486e-11 1.8489585e-12
7.236004e-11 -5.2722802e-11 -3.6585623e-11 7.6311533e-11 -4.1694613e-11 6.713163e-11 2.016598e-10 -1.1098907e-11
2.8970453e-11 2.462077e-12 -9.429888e-12 1.1462445e-11 2.2706566e-11 -5.85127e-12 2.5263689e-11 -5.228935e-11
3.3772457e-12 -1.7814248e-11 -1.488444e-11 -9.148333e-13 -4.9355717e-11 3.4328904e-11 1.7927433e-12 -2.7239216e-11
1.699033e-11 -1.6482087e-11 1.2170798e-12 2.7236036e-11 2.3334041e-11 3.52438e-11 7.761707e-12 4.0127623e-11
-3.5881582e-11 -5.8400895e-11 2.2013785e-11 -1.32008345e-11 3.5084522e-12 1.3426447e-11 3.776635e-11 -3.681847e-11
2.0436743e-11 2.4590259e-11 7.070061e-11 2.8360323e-11 2.8353722e-11 -1.4456857e-11 -7.916964e-11 1.4650194e-11
-5.112743e-12 -2.4736843e-11 -3.0796525e-11 3.5559465e-11 -2.4959224e-11 1.0192326e-10 -1.08519695e-11 4.837487e-11
-9.7446695e-12 4.855722e-12 -9.1016694e-11 1.5780685e-10 -2.1936403e-10 -3.0483192e-11 -2.6479392e-11 7.8061845e-12
-2.3284243e-11 -4.7947393e-12 -2.5490932e-11 -3.2803454e-11 1.2669333e-11 -4.4027487e-11 1.03148184e-10 -9.3911285e-12
6.065467e-11 5.929654e-12 -2.1927637e-11 -1.3479398e-12 -7.606188e-11 -1.3572131e-11 2.0862012e-12 3.10599e-11
-8.079944e-11 3.7309652e-11 -8.210096e-11 6.0045664e-13 -2.1183864e-11 -3.9730955e-11 4.442416e-11 -8.9950825e-12
0.022393472 0.02247657 0.023259005 0.0034395999 -0.0016473389 -0.019137684 0.0016499255 -0.00086166174
0.0073225596 -0.018314872 0.0025699732 0.010625691 -0.003301335 -0.009050143 -0.009782343 0.00588781
-0.012950569 -0.0030617623 0.018482324 0.01010864 -0.013778088 0.00030214537 0.01166649 0.015932828
-0.014598259 0.015303071 0.004997511 -0.0038910157 0.0018925265 0.010601675 0.028031902 0.013608496
-0.0027571998 0.011466991 0.0074964412 0.013421821 0.016839322 -0.01084167 0.0022057917 -0.0018781081
0.016051315 0.015002213 -0.017274406 0.0069732238 -0.02185196 0.00051179755 0.015671987 0.004558695
-0.018352207 -0.0075918953 0.0091951 -0.008798553 0.012890582 0.007958897 -0.00065037527 -0.013800082
00000000: 18f1 e53a 514b cdba b72c 47ba 220c 1cbb
00000010: 6965 99b9 2b8c 19b9 d76c a0b8 6114 373a
00000020: 121a d1ba b9be 53bb 8b34 88ba 5c0b b53a
00000030: f322 3d3a ae40 ec3a 9cb1 11ba adcb c6ba
00000040: 5aa6 123b 9449 7cba 5931 8b3b e999 95ba
00000050: 266d 2d3a 6eb7 a0ba 22b9 a0ba e004 bab9
00000060: 35b5 59ba ad0d 82bb 9c6c 1d3c 172b 613b
00000070: f532 5fbb 3ad5 fc3a 0979 153b 117a 383a
00000080: bd03 b23b f82b c338 c5f0 65ba 4d55 84ba
00000090: 823f a4bb daec cd3b f3dd 843a 2568 9a3b
000000a0: 5780 863b 76ed d6bb d418 2abb 0f14 3abb
000000b0: 5982 f83a b35e 1a3c 7bc3 d53b 53a7 b63b
000000c0: 0759 223b 7e04 28bb c3fb 063a b372 a139
000000d0: 3605 beb9 4fc3 5cb9 4565 8a3b 8202 713a
000000e0: aa79 5b3b 63bc 0aba a56d 0c3a 4174 d33a
000000f0: d05f 9cbb 443d afba fed3 283b c4e8 2f3b
00000100: 3034 66bb fc35 663b 9601 673b 834b 133b
00000110: 4397 25bb 8482 beba 929d 483a 90ec 2e3b
00000120: ba4f 09bb 9826 87b9 4852 06bb d5c9 d83a
00000130: b949 62ba 32ce 2ebb 73e6 693b 1b52 c63b
00000140: 9e69 8c3b ba54 3c3a 3146 27bb 2b43 27bb
00000150: 9fbe 01ba 8543 81bb fa65 473b 691d 183b
00000160: 420e 7d3a 93d0 b5bb d88f 2cbb 747e 2dbb
00000170: 4daf 833b 63ca 59ba 9d6b 69b9 1de2 ae3b
00000180: af14 7b3b e335 893b 652e a53a 5ba8 54ba
00000190: 7867 3fae 6fac e62d 7d59 49ae ca28 41af
000001a0: 6376 782e 26a5 8f2d 2dae 22ad 5530 642e
000001b0: 4e5a a62e 6b6f 81ad cbac ac2e e01b 022c
000001c0: 151f 9f2e 99e0 67ae c0e7 20ae 93cf a72e
000001d0: f65f 37ae bf9f 932e 30ba 5d2f 0941 43ad
000001e0: a9d3 fe2d d640 2d2c 71e4 25ad 43a6 492d
000001f0: a4ba c72d 8edf cdac c538 de2d 93f8 65ae
00000200: 0da7 6d2c 1fb2 9cad c7ec 82ad 58c0 80ab
00000210: 9911 59ae e9fa 162e 624e fc2b 4399 efad
00000220: d272 952d 5cfa 90ad ec49 ab2b 1a92 ef2d
00000230: 973f cd2d fe00 1b2e 9f8b 082d b07b 302e
00000240: 12cf 1dae c86c 80ae a3a2 c12d 463b 68ad
00000250: a8e2 762c 5733 6c2d 2119 262e e9ed 21ae
00000260: 74c3 b32d 574c d82d e878 9b2e c575 f92d
00000270: e866 f92d e553 7ead 8c18 aeae 4edd 802d
00000280: 7fe3 b3ac 6b96 d9ad ce71 07ae 6664 1c2e
00000290: 2d8b dbad b221 e02e ede8 3ead 43c1 542e
000002a0: 176e 2bad 75d8 aa2c d825 c8ae ae82 2d2f
000002b0: 7c31 71af 0611 06ae 4aea e8ad ee53 092d
000002c0: 74cf ccad 2cb3 a8ac 7a38 e0ad 6845 10ae
000002d0: 9ae1 5e2d 8ba2 41ae 44d3 e22e e235 25ad
000002e0: 8b61 852e 93a1 d02c a6e0 c0ad a6b4 bdab
000002f0: 0843 a7ae 72c3 6ead a9cd 122c 579a 082e
00000300: 0aae b1ae ef16 242e bb8a b4ae 7603 292b
00000310: d255 baad 14bd 2eae 2861 432e 403e 1ead
00000320: 8472 b73c c920 b83c ab89 be3c e96a 613b
00000330: 85eb d7ba a2c6 9cbc 5042 d83a 24e1 61ba
00000340: 15f2 ef3b 1209 96bc ff6c 283b 6117 2e3c
00000350: 365b 58bb 0d47 14bc 1f46 20bc 88ee c03b
00000360: a02e 54bc d9a7 48bb 3e68 973c b69e 253c
00000370: 7dbd 61bc 4469 9e39 ce24 3f3c 9085 823c
00000380: 892d 6fbc bbb9 7a3c 29c2 a33b 6900 7fbb
00000390: a70e f83a a6b2 2d3c 29a3 e53c 2bf6 5e3c
000003a0: 23b2 34bb 0ce0 3b3c b5a4 f53b 33e7 5b3c
000003b0: 9ef2 893c 43a1 31bc 0b8f 103b da2a f6ba
000003c0: 0c7e 833c d8cb 753c 0e83 8dbc a47f e43b
000003d0: e202 b3bc 272a 063a 8a62 803c 1b61 953b
000003e0: 5e57 96bc 6fc5 f8bb 0ba7 163c ce27 10bc
000003f0: 0533 533c 0966 023c f27d 2aba bd19 62bc

att.out_proj.weight f4 [100, 100]
0.041968912 0.06258037 0.06334649 -0.09917316 0.06266932 0.09845355 -0.0050944947 -0.055045564
0.046280615 -0.033499975 0.07279797 0.050475344 -0.040568933 0.058187697 0.030386046 0.09945925
-0.051547106 0.017651051 6.5046675e-05 -0.011993538 0.006177095 0.07068645 0.0029725863 0.067537025
-0.09071844 0.072957836 0.09356889 0.02143663 -0.0019218735 0.013983717 -0.041542947 0.09766616
0.021039737 0.014184804 0.009600911 0.007934109 -0.06803115 0.03480953 -0.050898742 0.08871865
-0.064395435 -0.055958603 -0.047869086 0.034535468 0.0867823 0.048017375 0.027468573 -0.08542123
-0.097988546 0.038894013 -0.07333146 -0.08382388 -0.082217626 -0.04350578 -0.0061987154 0.07551809
0.037947908 0.009651249 0.046515826 -0.014783066 0.05497841 -0.062849805 0.04558942 -0.07614507
0.05324776 -0.0193796 -0.060484026 -0.030702071 0.093995996 0.053152416 -0.045919787 0.072126545
-0.016887128 -0.034624472 0.053526178 0.04109425 0.039739944 0.006015239 -0.05519785 0.009215189
0.020036913 -0.03590652 -0.037862565 0.09359809 -0.038839616 0.0753352 -0.062573224 -0.020077009
-0.08838309 -0.0037453275 -0.072526775 0.016292915 -0.043473482 0.044707466 0.0793324 -0.03082987
-0.0035055764 -0.012791158 -0.023837436 -0.076829895 0.08870787 -0.048694976 0.0776001 0.014274786
0.0107731335 0.06256039 0.045953356 0.010920512 0.041645464 -0.08240087 -0.027432414 -0.005908179
0.07330014 0.011862531 -0.047217112 0.07983402 -0.07487965 0.020537205 0.06393347 -0.07473812
0.024303982 0.04703843 -0.016492344 -0.042201944 0.09875419 0.07938073 -0.02415998 0.0065295254
0.050676785 0.015769621 0.08573504 -0.016704807 0.08765408 -0.021162597 -0.044046745 0.00036443598
-0.017285505 0.020343553 0.00083506247 0.08175651 0.093951195 -0.019694488 0.046245646 0.0824476
-0.08239107 0.103067614 -0.026979802 0.0643821 -0.04790774 -0.07485621 -0.044500973 -0.02365526
-0.053407982 0.09747468 -0.0958157 0.031245671 -0.097153924 -0.008384918 -0.025792668 -0.05159077
0.045232423 -0.04183153 0.035538714 0.09527126 -0.003022081 0.007334755 0.009267782 -0.090484284
0.0033727635 -0.012045596 0.037662152 -0.08183566 0.035316236 0.07614627 0.067765854 -0.07680218
0.069584735 0.08065155 0.037431013 0.06256572 -0.028223045 0.111385524 0.07746471 0.08614187
-0.0668063 0.047242586 -0.011939954 -0.03908173 -0.052304305 0.085848294 0.005911666 -0.017143263
-0.04419144 0.035798408 0.01722449 -0.10303811 0.028387941 0.02580748 -0.03303818 0.044151403
0.04290944 0.05560547 -0.005003808 -0.006924438 0.035508353 -0.06448702 -0.0021833724 0.09102336
-0.07373482 0.04830013 -0.08178072 -0.048500303 0.08828179 0.07034354 0.0862163 -0.03296735
0.095432594 -0.03401829 -0.057588913 -0.0423112 0.021661595 0.070717044 0.070565894 0.05461914
0.05777622 0.029711181 -0.02292233 0.06648593 -0.06701838 0.035693016 -0.045899313 0.028989913
0.080983445 -0.08399386 -0.021509228 -0.0534074 -0.025969578 0.018310728 0.09233494 0.086319804
-0.005146412 0.0804056 -0.04100191 0.013863431 -0.06353161 0.06053773 0.012914869 0.059459385
-0.0056342315 -0.07514866 0.041258145 0.011045211 0.059471257 0.03842367 -0.035942666 0.019983139
00000000: 98e7 2b3d 232a 803d cebb 813d 4c1b cbbd
00000010: c658 803d 04a2 c93d b8ef a6bb 7577 61bd
00000020: be90 3d3d 4537 09bd 1a17 953d 3cbf 4e3d
00000030: 9c2b 26bd 3956 6e3d 28ec f83c 4bb1 cb3d
00000040: 0f23 53bd f098 903c ab69 8838 8b80 44bc
00000050: 3b69 ca3b 0fc4 903d b9cf 423b da50 8a3d
00000060: 97ca b9bd eb6a 953d 0ca1 bf3d df9b af3c
00000070: 60e7 fbba f61b 653c f028 2abd 3205 c83d
00000080: 875b ac3c 6167 683c 244d 1d3c 11fe 013c
00000090: ea53 8bbd 7094 0e3d 337b 50bd 20b2 b53d
000000a0: c1e1 83bd d934 65bd 6012 44bd 1075 0d3d
000000b0: ebba b13d dead 443d c605 e13c 53f1 aebd
000000c0: 38ae c8bd 544f 1f3d ce2e 96bd dbab abbd
000000d0: b761 a8bd 1e33 32bd 981e cbbb 3aa9 9a3d
000000e0: 446f 1b3d 4620 1e3c 6187 3e3d ac34 72bc
000000f0: 0b31 613d 66b7 80bd f9bb 3a3d f2f1 9bbd
00000100: 531a 5a3d f8c1 9ebc 19be 77bd e982 fbbc
00000110: f980 c03d 59b6 593d 6316 3cbd 15b7 933d
00000120: e056 8abc 64d2 0dbd 443e 5b3d 7252 283d
00000130: 5ac6 223d 7b1b c53b 2417 62bd 4efb 163c
00000140: 7424 a43c b712 13bd c715 1bbd 5bb0 bf3d
00000150: 4a16 1fbd 5749 9a3d 6426 80bd 8a78 a4bc
00000160: 3202 b5bd 2b74 75bb eb88 94bd b878 853c
00000170: 4011 32bd 2d1f 373d 0679 a23d ec8e fcbc
00000180: d0bd 65bb 0192 51bc ba46 c3bc fe58 9dbd
00000190: 79ac b53d 6274 47bd cdec 9e3d cbe0 693c
000001a0: cc81 303c a91f 803d 9639 3c3d f2eb 323c
000001b0: 6f94 2a3d cac1 a8bd f1b9 e0bc 6699 c1bb
000001c0: 621e 963d 105b 423c bb66 41bd 0580 a33d
000001d0: 805a 99bd a43d a83c 8def 823d 4d10 99bd
000001e0: 2519 c73c 5eab 403d f41a 87bc f2db 2cbd
000001f0: a33f ca3d 5d92 a23d 26eb c5bc a1f5 d53b
00000200: 7692 4f3d 4b2f 813c da95 af3d 85d8 88bc
00000210: fb83 b33d 2f5d adbc 5c6a 34bd c511 bf39
00000220: 559a 8dbc 86a7 a63c 18e8 5a3a f56f a73d
00000230: 7c69 c03d 5656 a1bc 136c 3d3d 4ada a83d
00000240: a6bc a8bd 1d15 d33d bf04 ddbc c3da 833d
00000250: e83a 44bd 364e 99bd a746 36bd adc8 c1bc
00000260: 54c2 5abd cea0 c73d 063b c4bd ecf6 ff3c
00000270: a3f8 c6bd e560 09bc 254b d3bc d850 53bd
00000280: a245 393d 8a57 2bbd 0b91 113d 941d c33d
00000290: 1b0e 46bb 6258 f03b e5d7 173c d34f b9bd
000002a0: 9509 5d3b e45a 45bc a143 1a3d 7499 a7bd
000002b0: c2a7 103d 93f2 9b3d d3c8 8a3d 764a 9dbd
000002c0: 7182 8e3d a42c a53d 4351 193d 7522 803d
000002d0: 0434 e7bc 181e e43d d1a5 9e3d 266b b03d
000002e0: bed1 88bd 7181 413d cc9f 43bc 2a14 20bd
000002f0: 0a3d 56bd 3bd1 af3d a6b6 c13b 0770 8cbc
00000300: 1502 35bd 5aa1 123d 601a 8d3c a505 d3bd
00000310: d48d e83c 356a d33c 0b53 07bd 1ad8 343d
00000320: cfc1 2f3d 90c2 633d fcf6 a3bb 65e6 e2bb
00000330: 3571 113d c511 84bd e916 0fbb 756a ba3d
00000340: 4802 97bd 5bd6 453d a67c a7bd 41a8 46bd
00000350: 15cd b43d 4610 903d 2c92 b03d c608 07bd
00000360: 2a72 c33d c356 0bbd 5ae2 6bbd 824e 2dbd
00000370: a873 b13c 19d4 903d da84 903d 52b8 5f3d
00000380: c2a6 6c3d dd64 f33c 9cc7 bbbc c629 883d
00000390: ef40 89bd d732 123d eb00 3cbd 417c ed3c
000003a0: a6da a53d f904 acbd 1f34 b0bc b8c1 5abd
000003b0: 27be d4bc 6100 963c 1a1a bd3d 70c8 b03d
000003c0: 3ca3 a8bb b1ab a43d 9ef1 27bd 7223 633c
000003d0: dc1c 82bd 69f6 773d e398 533c af8b 733d
000003e0: 5c9f b8bb 8ae7 99bd 4dfe 283d f9f6 343c
000003f0: 2298 733d 2362 1d3d 9e38 13bd aeb3 a33c

att.out_proj.bias f4 [100]
-0.0024894949 0.030205699 -0.018646587 0.0010214502 -0.01201809 -0.0044213315 -0.020625433 -0.016854811
0.027681293 -0.009692101 -0.025905317 0.038195264 -0.003691806 0.0031781485 0.0038216228 0.017300192
-0.0014133562 0.017721869 -0.015707087 0.01985173 0.00631248 -0.006102194 0.0055281124 -0.0025671788
0.010522727 0.034675963 0.03927466 0.00664563 -0.00041482938 -0.027124176 -0.002435682 0.012282829
-0.036033202 0.017727505 0.019504718 0.012672445 0.013027827 -0.011605973 -0.02254315 -0.020163275
-0.002470943 0.017591562 0.012161812 0.022687087 0.02260036 -0.0059720017 -0.013149611 -0.0022216449
-0.0041869422 0.004090979 -0.02690501 0.0059014726 -0.014355165 -0.016652396 -0.011249906 0.035688367
-0.014095616 -0.015452182 -0.019606803 0.02060541 -0.02174636 -0.010275822 0.024048664 0.041578878
-0.010042319 0.018971063 -0.019345688 0.010301007 0.015558178 0.01703564 -0.012777543 -0.003747952
0.015625475 -0.027667249 0.014646416 -0.0024580797 0.007962691 -0.019161023 0.0038977892 0.03977535
-0.0065073785 0.01992531 -0.026048442 -0.033948123 -0.031116117 -0.025750794 0.012272061 -0.0111533
0.02093793 -0.008397242 0.023116589 -0.032214765 0.018448053 0.0074448767 0.00402786 0.026301507
0.009925655 -0.017553164 0.0043829074 0.03446003
00000000: cb26 23bb f171 f73c bac0 98bc 2ee2 853a
00000010: 86e7 44bc d1e0 90bb abf6 a8bc 1a13 8abc
00000020: e1c3 e23c 9ecb 1ebc 6337 d4bc a372 1c3d
00000030: 3af2 71bb 7c48 503b 3174 7a3b 22b9 8d3c
00000040: 5d40 b9ba 742d 913c 26ac 80bc 18a0 a23c
00000050: ecd8 ce3b eaf4 c7bb 2b25 b53b 1d3e 28bb
00000060: 8467 2c3c 6208 0e3d 77de 203d 96c3 d93b
00000070: 757d d9b9 8533 debc f79f 1fbb eb3d 493c
00000080: 8d97 13bd 4639 913c 5cc8 9f3c 16a0 4f3c
00000090: ab72 553c fb26 3ebc 69ac b8bc 742d a5bc
000000a0: 8bef 21bb 2e1c 903c 5642 473c 45da b93c
000000b0: 6424 b93c c8b0 c3bb 7771 57bc 0499 11bb
000000c0: 9e32 89bb 9f0d 863b e567 dcbc 2461 c13b
000000d0: ed31 6bbc 9b6a 88bc 8751 38bc f72d 123d
000000e0: 4cf1 66bc 262b 7dbc 729e a0bc adcc a83c
000000f0: 6c25 b2bc ec5b 28bc b401 c53c 9d4e 2a3d
00000100: 8a88 24bc 3469 9b3c d97a 9ebc 8ec5 283c
00000110: bae7 7e3c 548e 8b3c e658 51bc 33a0 75bb
00000120: ff00 803c 6da6 e2bc 85f7 6f3c bc17 21bb
00000130: f275 023c 94f7 9cbc 0d72 7f3b 7aeb 223d
00000140: d93b d5bb 673a a33c 8b63 d5bc 300d 0bbd
00000150: 3ae7 febc 54f3 d2bc c110 493c 55bc 36bc
00000160: 0686 ab3c 9694 09bc 005f bd3c a1f3 03bd
00000170: 5f20 973c 27f4 f33b 23fc 833b 4276 d73c
00000180: 379f 223c a7cb 8fbc 7e9e 8f3b f625 0d3d

classifier.weight f4 [2, 100]
-0.10797877 0.07468093 0.0034364655 -0.108186066 0.011109997 -0.035194546 -0.08976636 -0.013273878
0.09446544 -0.11947446 -0.10539727 0.12602212 0.07394889 0.06318863 -0.060412247 0.07412696
-0.012919925 0.075098835 0.007518447 0.01922154 0.078437835 -0.030707248 0.040944293 -0.058573306
0.06003044 0.15480262 0.12009258 0.111954816 -0.035448972 -0.056173578 -0.04543026 -0.018481351
-0.13176714 0.101801604 0.047963224 0.0074857264 0.10576013 0.00945336 -0.05839259 -0.008860877
-0.009852632 0.0635474 0.014080845 0.08502843 0.086823694 -0.13318476 -0.10212463 -0.017653689
-0.04975215 0.10492219 -0.09759029 -0.0720144 -0.0021359082 -0.062074773 0.01579112 0.14235608
-0.13019781 0.016404686 -0.03311443 0.08636594 -0.09237029 -0.0032309908 0.0410608 0.1963559
-0.10725301 0.023074007 -0.08780951 0.11032555 0.07164463 0.10578965 -0.030033065 -0.100304514
0.034861155 -0.111442216 0.0662985 -0.08921069 0.079191856 -0.060005452 0.0147393355 0.13220969
0.061045617 0.09096218 -0.12709336 -0.12442406 -0.11634646 -0.042428754 0.008616502 -0.012486389
0.10363687 0.013657774 0.063577846 -0.11599036 0.08863084 0.07100749 0.03629121 0.06955385
0.0815985 -0.02308516 0.08080126 0.10008739 0.08089601 0.12317141 -0.083109826 0.06385454
-0.082792915 0.028690567 -0.058659513 -0.06746785 0.14593533 0.013571176 -0.074170254 0.12831669
-0.101602204 -0.072219655 0.13020322 0.09546623 -0.015077793 0.12378421 -0.12578334 0.07756535
-0.047426045 -0.0024573598 -0.06266613 -0.016712736 -0.0073518977 0.15330005 0.14816593 -0.03135113
0.008650539 -0.12489478 0.00677171 0.10011329 -0.12602173 0.058126107 0.08145958 0.14053772
-0.01528781 -0.098682426 -0.06786404 -0.109545715 -0.0115038715 0.08875354 0.087509386 0.033442818
0.10797459 0.039089527 -5.7342946e-05 -0.023289345 0.051663868 -0.068954065 -0.16894484 0.061104868
-0.09138477 -0.0781263 -0.061410565 0.10976145 0.008664541 -0.114131205 -0.09905019 0.046356972
-0.050284516 0.0070116203 0.12829861 0.16259493 0.025474852 0.097353205 -0.023594076 -0.010553581
-0.0128249945 0.043327145 -0.045444533 0.050787635 0.095520966 -0.0878576 -0.02558595 0.02461403
-0.049736615 -0.056177583 -0.013556536 0.14432082 -0.06596689 0.05922568 -0.059043683 -0.1087561
-0.08393164 -0.106351234 0.07848413 -0.082705334 0.057776388 -0.052629203 0.13396783 -0.11263405
0.010171181 0.008876354 0.031730063 0.14335355 -0.043754466 -0.123184055 -0.03762529 0.11668587
00000000: f923 ddbd 51f2 983d 5336 613b a890 ddbd
00000010: b406 363c 2828 10bd 6dd7 b7bd ae7a 59bc
00000020: 1977 c13d 07af f4bd 86da d7bd f10b 013e
00000030: 8472 973d 0a69 813d d572 77bd e0cf 973d
00000040: 18ae 53bc 6bcd 993d 4e5d f63b 7e76 9d3c
00000050: 04a4 a03d c48d fbbc 34b5 273d 90ea 6fbd
00000060: 7be2 753d 9484 1e3e 19f3 f53d 9148 e53d
00000070: f132 11bd 4416 66bd 1515 3abd 3466 97bc
00000080: f7ed 06be 5c7d d03d 1675 443d d34a f53b
00000090: c498 d83d 44e2 1a3c 122d 6fbd 362d 11bc
000000a0: ef6c 21bc 2425 823d 58b3 663c 6323 ae3d
000000b0: 9fd0 b13d 9661 08be b826 d1bd 789e 90bc
000000c0: e9c8 4bbd 72e1 d63d 6bdd c7bd 497c 93bd
000000d0: 98fa 0bbb 1e42 7ebd 615c 813c cbc5 113e
000000e0: 9352 05be 1f63 863c ffa2 07bd a0e0 b03d
000000f0: a22c bdbd 08bf 53bb 5f2f 283d 8511 493e
00000100: 77a7 dbbd b305 bd3c 79d5 b3bd 5df2 e13d
00000110: 6bba 923d 3ea8 d83d e707 f6bc 746c cdbd
00000120: 92ca 0e3d d13b e4bd 82c7 873d 18b4 b6bd
00000130: 572f a23d 47c8 75bd 417d 713c fa61 073e
00000140: f80a 7a3d 614a ba3d c324 02be 0bd2 febd
00000150: 0e47 eebd c6c9 2dbd 3b2c 0d3c b693 4cbc
00000160: 913f d43d dbc4 5f3c 1a35 823d 5b8c edbd
00000170: 1684 b53d 606c 913d 18a6 143d 4072 8e3d
00000180: 1d1d a73d 171d bdbc 227b a53d 9efa cc3d
00000190: cfac a53d 4b41 fc3d 7c35 aabd 2bc6 823d
000001a0: 558f a9bd 7b08 eb3c f544 70bd 962c 8abd
000001b0: 1270 153e a359 5e3c 93e6 97bd 7365 033e
000001c0: d114 d0bd e6e7 93bd fe53 053e cc83 c33d
000001d0: d908 77bc 9382 fd3d 59cd 00be 95da 9e3d
000001e0: d041 42bd a80b 21bb 1a57 80bd 26e9 88bc
000001f0: 30e8 f0bb b0fa 1c3e cfb8 173e 0b6a 00bd
00000200: feba 0d3c d6c8 ffbd 38e5 dd3b 3208 cd3d
00000210: d70b 01be a415 6e3d 48d4 a63d 1fe9 0f3e
00000220: b979 7abc 031a cabd 4dfc 8abd 8159 e0bd
00000230: bc7a 3cbc 6ac4 b53d 1f38 b33d 56fb 083d
00000240: c821 dd3d 571c 203d 8583 70b8 4cc9 bebc
00000250: 7e9d 533d ca37 8dbd e0ff 2cbe 1949 7a3d
00000260: f027 bbbd ae00 a0bd a589 7bbd 9cca e03d
00000270: b8f5 0d3c 9fbd e9bd d3da cabd cfe0 3d3d
00000280: 23f7 4dbd bcc1 e53b b660 033e 497f 263e
00000290: a3b0 d03c 1e61 c73d 5d48 c1bc ede8 2cbc
000002a0: ed1f 52bc ce77 313d 0c24 3abd b206 503d
000002b0: 7fa0 c33d afee b3bd a099 d1bc 5da3 c93c
000002c0: 9fb8 4bbd 771a 66bd 3c1c 5ebc d6c8 133e
000002d0: a619 87bd a096 723d cad7 71bd 85bb debd
000002e0: 5ae4 abbd adce d9bd 4abc a03d 6a61 a9bd
000002f0: efa6 6c3d b891 57bd dd2e 093e aeac e6bd
00000300: 06a5 263c 216e 113c 62f7 013d 46cb 123e
00000310: e237 33bd ec47 fcbd fa1c 1abd 00f9 ee3d

classifier.bias f4 [2]
0.20551577 0.1576256
00000000: ba72 523e 9b68 213e
