save/2-7_rnn_sp_170.pt (torch, 20370 bytes, 7 tensors)

emb_layer.weight f4 [170, 16]
00000000: 0000 0000 0000 0000 0000 0000 0000 0000
00000010: 0000 0000 0000 0000 0000 0000 0000 0000
00000020: 0000 0000 0000 0000 0000 0000 0000 0000
00000030: 0000 0000 0000 0000 0000 0000 0000 0000
00000040: 0be3 663f a697 8ebe f491 463f 94e0 653f
00000050: 0555 0d3e 2c6c aabe 31b7 ea3f 9710 0bbf
00000060: be7c 1840 f5b1 113f efa2 013f 6661 3540
00000070: eeb7 c2bf 509c 073f 9f6a ccbf 5ba8 2ac0
00000080: ae1b 16bf e490 973e c4d9 973e aa2d de3e
00000090: fd23 e13f 311b c83f 39cf a93e 12d6 9fbf
000000a0: 6e69 77be 26ec fc3e b7db dc3e 0d33 ccbe
000000b0: 90e1 403f 822e 01bf 2b5b cabf db18 27be
000000c0: a003 023d a9a4 10bf 3d5f fd3c 9707 72be
000000d0: 7ad2 133f e65e b4bf 9525 d8bd 8c01 c0be
000000e0: 5659 0c3f b513 833f e3e2 7a3f 1d82 14bf
000000f0: d3fb e9bd 4213 bebf b191 0d3f 1073 1bbf
00000100: 9b9f 78be e31c 413f 7045 a03e b83c 103f
00000110: 5403 b0be f818 a63f 72d6 27c0 5d80 4abf
00000120: 226a 563e 58b9 47bf de2e bebd 6055 04c0
00000130: 0078 2c3f 9b59 2f3f 5616 f2bf 167d 1ebf
00000140: 7426 9a3d 6527 2abe 4228 e6bd ddab 8bbe
00000150: d727 ed3e 4679 a6bf 83b1 403f 4f6c 5ebe
00000160: bf1b fd3e 36be 493f 2684 ae3e 84ac d2bf
00000170: 1e40 6b3e 1ce1 053f a49a d9be 54b7 2dbf
00000180: e9bb 27be 748f 19be 4383 643f aafa 34bf
00000190: efb7 4bbf 4206 a53f 1b55 6dbf af5a 2a3e
000001a0: e530 233f 6abd 78bf 1a55 0440 4890 bcbf
000001b0: 07a1 ff3e 3965 95bf d785 d7bd 6ab8 eb3f
000001c0: 306a 4b3d 23dc b3bf 5131 d73d 2802 e0bf
000001d0: dbc0 ea3d da15 2e3f 19fc 813f 473c d1be
000001e0: 54ff 703f 8e0e e53d 7413 68bf cf80 4a3e
000001f0: 1d88 1c3f 90a5 fbbf 5620 5bbe cbeb 5dbf
00000200: d612 8c3d 7a6a 18bf c0f4 05be d12c 16be
00000210: 97ce 52bf 34cb 4ebf 282a 9c3e ed00 1d40
00000220: 3424 09bf 53a1 17bf 44a6 c9be eeb7 9d3f
00000230: db12 87bf 0cbb a5be ce42 3dbf 3986 b4be
00000240: 9d09 95bf faf0 89bf 6a7b 403f 63e1 a53f
00000250: 027e 3abe b12f ca3f 500b 823e 61a1 67bf
00000260: 7c0e 103f 5f73 3d3e 35ad 9d3e fc66 8dbf
00000270: 9dbd 33c0 5be3 cbbe 0b12 293b 7a94 793e
00000280: fa61 3fbf 6d15 98bf aca3 d5bf 0b33 76bf
00000290: 92d0 0a3d a8da 143e 8164 8f3e 07c2 febe
000002a0: f7ed 8fbf e339 963f 9574 cd3f b83f 63be
000002b0: fd49 babf f6d7 e23d f3ba 923f b0f8 63bf
000002c0: 2cc0 ddbe c5d3 b2bf 6c9b acbf edcf 013f
000002d0: f0c6 c63e 9cbb 7dbf 244f 02c0 1e50 8b3f
000002e0: 33f2 a63f c766 263e 19b3 863d 8c10 77bf
000002f0: ee07 9cbf a1a4 14bf 3312 90be 8c15 adbf
00000300: 00ae 3dbf f0c2 9bbf 3fbb c63d a4ca 3b3f
00000310: bfd6 0bc0 3270 c3be 918d 753f a5d0 77bf
00000320: 4c9a 39bf 53cb 0dc0 cdd3 c13f b376 63be
00000330: b7f8 2fbe af51 833f 80d2 583f 9434 083f
00000340: 5b04 813f d015 57bf 814b fb3f ca32 2dbf
00000350: 6ab2 e03f 080a 36bf e180 bd3e c8b0 823f
00000360: d7d1 ccbe de9d d3bf a57d 25be 1376 d73f
00000370: 3ab5 62bf 3d5e f5be 976b c13f b1c8 243e
00000380: 2a78 a23f 240c c63f 1618 283c 23a3 083f
00000390: ca17 663f 604d e8be f0b6 0f3f f261 3f40
000003a0: 57ee 3b3e eaf7 b2bd 4086 b7bf e022 0cc0
000003b0: 0a26 84bf 52ee 84be bb3c bcbf a78a 9e3e
000003c0: f318 ce3e 9b4a 64bf 48b5 b5be d0a9 3bbf
000003d0: 8431 72bf 17bf 813f 30ef 733e 33b5 cabe
000003e0: b906 e73e 3a36 25be 54c2 ccbe f482 533f
000003f0: db4e 4bbf 6af2 893f e6de 09c0 b8d8 dc3f
0.0 0.0 0.0 0.0 0.0 0.0 0.0 0.0
0.0 0.0 0.0 0.0 0.0 0.0 0.0 0.0
0.9019019 -0.27850074 0.77566457 0.89795804 0.13801964 -0.33285654 1.8337156 -0.5432219
2.3826137 0.56912166 0.5063924 2.8340697 -1.5212381 0.5297289 -1.5970038 -2.6665256
-0.58635986 0.2960273 0.2965833 0.43394214 1.7589108 1.5633298 0.3316591 -1.2487204
-0.24161312 0.49398917 0.4313638 -0.398827 0.7534418 -0.5046159 -1.5809072 -0.16318075
0.03174174 -0.5650125 0.030929202 -0.23635708 0.57743037 -1.4091461 -0.10554043 -0.3750118
0.54823816 1.0240389 0.9800245 -0.5801104 -0.11424985 -1.4849627 0.5530043 -0.60722446
-0.24279635 0.754347 0.31302977 0.5634265 -0.3437754 1.297637 -2.6224637 -0.79102117
0.20938924 -0.7801719 -0.09286283 -2.0677109 0.67370605 0.684961 -1.8913066 -0.61909616
0.075268656 -0.1661659 -0.11238147 -0.2727956 0.46319458 -1.300576 0.7527086 -0.21721004
0.4943523 0.78805864 0.34085196 -1.6458898 0.22973678 0.52296615 -0.42500794 -0.6785786
-0.16380276 -0.1499613 0.8926279 -0.70694983 -0.79577535 1.2892535 -0.92707986 0.16636156
0.6374648 -0.9716402 2.0676942 -1.4731531 0.49927542 -1.1671516 -0.10523575 1.8415654
0.049661815 -1.4051555 0.10507453 -1.7500658 0.114625655 0.6800209 1.0155059 -0.408663
0.941396 0.11184417 -0.90654683 0.19775699 0.6114519 -1.9659901 -0.21399054 -0.86687917
0.0683953 -0.5953747 -0.13081646 -0.14665534 -0.8234648 -0.80778813 0.30500913 2.4531815
-0.53570867 -0.59230536 -0.39384663 1.2321756 -1.0552629 -0.32369268 -0.7393006 -0.35258654
-1.1643559 -1.0776665 0.75188315 1.2959408 -0.1821213 1.5795804 0.25399256 -0.9048062
0.562721 0.18501042 0.3079621 -1.1047053 -2.808448 -0.39821896 0.0025798108 0.24373046
-0.74758875 -1.1881539 -1.6690574 -0.96171635 0.033890314 0.14536536 0.28006366 -0.49757406
-1.1244496 1.1736416 1.6051203 -0.22192276 -1.455383 0.110763475 1.1463302 -0.8905134
-0.43310678 -1.3970877 -1.3484931 0.50707895 0.38823652 -0.99114394 -2.0360804 1.0883825
1.3042663 0.16250144 0.06577129 -0.96509624 -1.218992 -0.58063704 -0.28138885 -1.35222
-0.7409363 -1.2168865 0.09703683 0.7335608 -2.184982 -0.38171536 0.9591914 -0.9680274
-0.72501063 -2.215535 1.5142761 -0.22213249 -0.17184721 1.0259303 0.846962 0.5320523
1.0079454 -0.8401766 1.9632417 -0.6765562 1.7554448 -0.71109056 0.3701239 1.0210199
-0.40003845 -1.6532552 -0.16161211 1.6832908 -0.8855778 -0.4792346 1.5110959 0.16092183
1.2692921 1.5472455 0.010259649 0.53373927 0.8988005 -0.45371532 0.56138515 2.990353
0.18352638 -0.08738692 -1.4337845 -2.1896286 -1.0324109 -0.25963074 -1.4706033 0.30965158
0.4025341 -0.8917634 -0.3548987 -0.7330599 -0.94606805 1.0136441 0.23821712 -0.3959137
0.45122316 -0.16133967 -0.3999201 0.82621694 -0.794172 1.0777104 -2.1542296 1.7253637

rnn.weight_ih_l0 f4 [32, 16]
00000000: 70c7 73bd 7d7a 90bd 3375 a33e 0962 22be
00000010: 52fa 0bbe 0a8e 27be fe1f 24bd 5396 8ebd
00000020: 916a a2bd 4244 cdbd 0568 06be c671 953e
00000030: bc04 2f3e 6c70 52be fa2b 45bd 1e30 a4be
00000040: 36ca 0abe 43d9 edba cbd7 163b 4d66 793e
00000050: 9ddd 553d 52fc c4bd d422 a03e 87a1 0bbd
00000060: 3c70 78bd 2ed0 debd 224c 1ebb 99bd 5dbd
00000070: 1e4c 6fbe a356 013e 8eca 233d 69d1 debd
00000080: d7e1 61be 4ecc e93c 8e8a 0bbe 573d 24be
00000090: 865f 193e 75ac 5dbe 98f8 c33a b9e8 db3d
000000a0: ec63 8c3b e445 7cbd 25fe cebd 4d16 8abd
000000b0: 18e5 8cbd ee6c b2bd 7265 853e 3525 3abe
000000c0: 026e 333e 40b9 c7bd 0373 0ebe ca4d 74be
000000d0: c40d 883e 10f5 173d 57a8 4cbe 3866 8ebd
000000e0: 1c9e 91bc 7de9 58bd 29db 003e 0ebf 22be
000000f0: 273c b13d 529e da3d 8d96 623e 1b28 b8bb
00000100: 4c40 6d3d 5f44 89be bbdf 853d 5867 b2bd
00000110: d181 313e 55ae 82bd 3133 12be 4b2d 4abc
00000120: e3f7 303e 9b84 f13d e4d6 433e 266e 333e
00000130: a290 423d 3798 d23d 68a6 ec3c c884 0abd
00000140: 7b05 f13d afdf 8d3e ce94 e13c dc25 853e
00000150: bb36 a9bd 1f91 173c a274 a73e 9584 b33d
00000160: 9088 80be 5638 59be b7b3 42be fc14 ba3d
00000170: 7dd0 3cbd a530 233d 3573 ec3d 4a86 e53d
00000180: 7e85 023e 3cfa 803d b2ec 59bd 6e10 e7be
00000190: 08c6 e0bd 1216 3b3c 42f3 8ebd 7457 92b8
000001a0: 17ba 633d 9069 943e 5694 453e 3394 3bbe
000001b0: f241 b83e b77d abbe 4c18 c63b 430d ecbd
000001c0: 381a e93d 0c2b 9b3d 183a 243e 20b9 1bbc
000001d0: b6c6 23be 13dd f83c e129 213e ab48 69bd
000001e0: 838d 5ebe 7304 833d 16c7 15be 117a 12be
000001f0: c6fc afbc 7b98 82be c017 3e3d 4c9e a53e
00000200: 5e66 673e 917d eabc 6c15 913e 935b 4cbe
00000210: 09ea 16be aa90 c73d ee04 6dbe c97d 993d
00000220: 4dee c03d 1b4e 8f3d f75c 1e3c f922 913e
00000230: 5f31 aa3e b597 dcbd f9ed 233e 0c56 4abe
00000240: acfd 4dbe e315 1cbe b053 abbd 1924 353e
00000250: 7601 143d cf6a 85bd 4836 003e a41a 733c
00000260: 499a 133e d404 12be 6119 ddbd 3d0f 4b3e
00000270: 279e 5dbe fbe8 283e d12a 023e 75fb 6ebd
00000280: d319 163e a030 5e3d debf 093e 58ba 44be
00000290: 18ac 04be d32a 26be 02be 3bbe 189c 1b3d
000002a0: 319f 7d3e 4dc7 863e bfb7 8a3c c7be b7be
000002b0: 69f4 003d d05d 52be 57b9 0fbe f0bd c8bc
000002c0: d827 89be 3649 05be 699d b6be e191 843e
000002d0: 44aa 7f3e 48c6 263d fd2d 59bc d922 37bd
000002e0: 8206 64be c1fe d0bd e545 56be eb14 e73d
000002f0: ed0b 39be 62b1 f03d ed15 fbbd ee46 203e
00000300: 8296 46be 457f 933d ed32 c2bb 46f6 02be
00000310: b711 753e 5369 60bd d0fc 0dbe 65f1 043d
00000320: 0153 de3d f3f1 7bbd af29 bcbd f135 2ebe
00000330: 6e56 f9bd 8f4c 8b3d d753 8a3d eb7e a93c
00000340: 4a86 a73d 5377 823e 6828 2fbe 4f30 153e
00000350: d70d 95bd 1b4c 88be 5f7d 563e 15ef da3d
00000360: aa83 0a3e e8a1 70bc 5d2a aa3d d701 87bd
00000370: 3f0b 693e 6e2d 0ebe da33 573e a1f7 74bd
00000380: 4c4b dcbd 05c8 8ebe e26b 20be f838 16bd
00000390: 4c91 1f3e 0209 9abd b597 5abe 0551 4dbe
000003a0: 8e44 9f3e 7b9b 7bbb 44d6 01be 2b47 8f3e
000003b0: 4f5f da3d f08f 623e 9c9b f2bd c86e 6b3e
000003c0: cec0 ce3d 4c36 5a3e 415a d53d 7aeb 5a3c
000003d0: a1fa b8be 524e 1b3e 8b5f cfbd 88de c3bd
000003e0: 440a 2b3d 05e9 9a3c 1d73 8ebd 3e4d 9abe
000003f0: 1044 813d e4a7 0fbe 06ab 873e 39e4 aebc
-0.05951637 -0.07054613 0.31925353 -0.1585771 -0.13669708 -0.16362777 -0.040069573 -0.06962266
-0.07930482 -0.10022785 -0.13125618 0.29188365 0.1709165 -0.20550698 -0.048137642 -0.3206796
-0.135537 -0.0018146414 0.0023016806 0.24355431 0.0522133 -0.09618439 0.31276572 -0.03408959
-0.06065391 -0.10879551 -0.0024154265 -0.054135893 -0.2336888 0.12630706 0.039988093 -0.108797856
-0.22058807 0.028539803 -0.13627073 -0.16039024 0.14977846 -0.21647818 0.0014951406 0.10737748
0.0042843726 -0.06159009 -0.10107068 -0.06742535 -0.06879634 -0.08712183 0.2605396 -0.18178256
0.17522433 -0.097521305 -0.13911061 -0.23857799 0.26573002 0.037098944 -0.19986092 -0.069530904
-0.017775588 -0.052957047 0.12583603 -0.15893194 0.08654051 0.106747285 0.22127743 -0.0056200153
0.057922646 -0.26809976 0.06536814 -0.087111175 0.17334677 -0.063809074 -0.1427734 -0.0123399
0.17282061 0.117928706 0.19124943 0.17522487 0.047501214 0.10282939 0.028887942 -0.033818036
0.117686234 0.2770972 0.027536776 0.26005447 -0.08262392 0.009250908 0.3270617 0.087655224
-0.2510419 -0.21212897 -0.19013868 0.09086034 -0.046097267 0.039841313 0.115454115 0.11207254
0.12746236 0.062977284 -0.053204246 -0.45129722 -0.109752715 0.011418836 -0.069799915 -6.978112e-05
0.05559739 0.28986788 0.19294867 -0.18318252 0.35987812 -0.3349435 0.006045377 -0.11525967
0.11381954 0.0757657 0.16037786 -0.009504586 -0.15993771 0.030378854 0.15738632 -0.056954067
-0.2173367 0.06397333 -0.14626727 -0.14304377 -0.021482836 -0.25506958 0.04640937 0.32347333
0.22597644 -0.028624328 0.28336656 -0.19956808 -0.14737715 0.09744389 -0.23146412 0.07494695
0.09420452 0.06997319 0.009665719 0.28346995 0.33240792 -0.10771123 0.16008748 -0.19759387
-0.201163 -0.15242724 -0.083655715 0.17689551 0.036134206 -0.06514513 0.12520707 0.014837895
0.14414324 -0.14259654 -0.10795856 0.19830032 -0.21642362 0.16495125 0.12711646 -0.058345277
0.14658289 0.05424559 0.13452098 -0.1921171 -0.12956274 -0.16227274 -0.18334201 0.03799066
0.24767758 0.2632393 0.01693332 -0.3588774 0.031483088 -0.20543599 -0.14035545 -0.024504632
-0.2678821 -0.13016209 -0.3566697 0.25892547 0.24967295 0.04071644 -0.013255593 -0.044710968
-0.22268108 -0.102048405 -0.209251 0.11283287 -0.18070956 0.11752583 -0.122600414 0.15652058
-0.19393352 0.07202009 -0.005926481 -0.12789258 0.23932539 -0.054787945 -0.13865972 0.032456774
0.108556755 -0.061510038 -0.09187638 -0.17012765 -0.12174688 0.06801712 0.067542724 0.020690402
0.081799105 0.25481662 -0.17105258 0.1456921 -0.0727803 -0.26620564 0.20946263 0.106901325
0.13526788 -0.014687039 0.083088614 -0.06592148 0.22758196 -0.13884518 0.21015874 -0.05980647
-0.10756549 -0.27886978 -0.15666154 -0.036675423 0.1558277 -0.07521249 -0.21346934 -0.20050438
0.3110699 -0.0038392234 -0.12679392 0.27983984 0.1066271 0.2212522 -0.118460864 0.22991478
0.10095368 0.21309775 0.10417605 0.013361806 -0.36128715 0.15166596 -0.10125645 -0.09563929
0.041757837 0.01890994 -0.0695555 -0.30137056 0.0631181 -0.14028889 0.26497668 -0.02134906

rnn.weight_hh_l0 f4 [32, 32]
00000000: 3619 95be 7e71 a53c 1a04 2bbe 2418 183e
00000010: 3090 72be 359d 343d 9f2e 333e 0bac 8e3d
00000020: d63b 9e3d 1338 84be 51ad 913e a9dc 0abe
00000030: 0779 08bb 1039 22be 5167 91be 72dc a33e
00000040: 3db3 66be ce45 a5bc dd42 733d 42cf 05be
00000050: d85a b63e db37 233e e46a 013e 4f7d 5c3d
00000060: 77cb a83d 73f3 0fbe 2c22 583c bb5e 86be
00000070: 233f 193e b3fc fe3d 4cde 593d c6e5 bdbd
00000080: 955d 203e 48a8 033e 44be 453e 4239 793d
00000090: ec76 97be 746c 323e e3d3 0bbe 3b24 ce3d
000000a0: 1eaa 96bc 942f 91bd c1d2 f43d f60d f3bd
000000b0: 2272 153e 9d00 273e 8678 31be f94e 623e
000000c0: f725 833d 11b0 873e 0cc0 9f3d 7a3a b43d
000000d0: b24e 2a3d 284d 4ebd cb72 143e 80cf b03d
000000e0: 7392 84be dee6 5c3c 5604 0cbd 476b 62be
000000f0: 4ecd af3d 7a55 0fbd dad3 a4bd 0f56 7bbe
00000100: d4e3 003e abcb 16be 08d6 c13d 33ae 173e
00000110: d863 4d3e b208 34be 60ac 833e a6eb f1bc
00000120: 7df3 023e 81c3 1cbe ae0e 213e 342a 2abe
00000130: ce90 1bbe 31d9 113e d680 6bbd 75dc 233e
00000140: 2d64 0f3e 0975 29be 027e ac3d 9287 c6bd
00000150: fb19 f43c 7976 963c 4e7b be3e 5521 853d
00000160: ffcc 9d3e 122a 88be e719 e8bd be28 8a3d
00000170: 5d91 983c d2e9 413e f3a1 cd3b 5c13 533e
00000180: e1a8 18be 90b9 073e 481f 86be 7d77 35bc
00000190: 417c b93d 427e 8c3c 8822 1a3d 4b95 a23d
000001a0: 38b3 283e abe3 693e ef10 bd3c 05ee 19be
000001b0: 9ab7 47bc 7c24 d1bd 9cc8 a3bd f286 563e
000001c0: 19ed 353d 9477 d23d 19ba 85bd be43 53be
000001d0: 46ae 1c3e 58b5 dfbc 2b5a 90ba 49cf 6c3e
000001e0: f3ad bd3c 16a3 d13d 778c 0bbe 237d d0bc
000001f0: 807f 453e 1b76 8f3d 8c8e d7bd 0570 c43d
00000200: e172 edbd 992c 5bbe 9dfe 8e3d 4a97 3c3e
00000210: 3fa1 7e3d bc66 7d3c 8d39 ac3e a6e7 0f3e
00000220: 300a a1bd 091c fbbd ed8f 9fbd c645 c93d
00000230: e875 08bd e628 27be d2d5 dd3d 2502 28bc
00000240: 49d7 cd3d 6bbf 1fbe 6888 1ebe 7c2e a7bd
00000250: c121 af3d ee67 86bd 1b64 e6bd b4ba 423e
00000260: 2ae1 363e 4210 39be 1b18 d33d 1f19 67bd
00000270: 5def fe3d 4a87 98bd 20c8 ffbb 2e53 39be
00000280: 4164 bb3e 71d7 6d3e 4e90 223e caac 6b3e
00000290: 5d54 a9bd 83ef 8c3d 6662 ddbd 1c6f 66be
000002a0: 3d9e 903d 89d0 63be 2e12 04be aeec 8dbe
000002b0: 40ff 73bd b674 873e bfcc 4a3e 0649 353e
000002c0: deed 9d3d aa17 713d 03c7 103e d218 453d
000002d0: 1bef 693c c2d8 efbd 2720 533d 60be 97bd
000002e0: a4a8 c23d bcfa 423d 8b14 613b a4ec 1abe
000002f0: 2a6b 30be 31c2 84bd f02f f1bd 5475 a4bd
00000300: d13c 18be 7ff3 163d 0942 04be 1e08 97bd
00000310: 00ec 2dbe 3e60 1dbe e313 6e3d 8d27 94bb
00000320: 1d86 3dbe 29e7 adbc aeb5 d1bb 7d9b 5f3d
00000330: f9b3 eabd e1c2 233e 98a7 173e 954f 3d3d
00000340: fd09 7c3d 290c ac3b 1149 a13d c08c 2fbe
00000350: c7ed 783d 2810 2b3e 0469 49be 90dc c6bd
00000360: 2b8b 3e3e 555d 71bd de48 6f3d 4abe 0c3e
00000370: 552c c53d 4353 c23c d09d 5c3e 3934 f5bc
00000380: 39ad 86bd 2298 d3bd 0e17 eabd 0d10 cb3c
00000390: 11ba 243e 2e0a 08bd f3bb 83be eb3a 77bd
000003a0: 0ba0 6dbe c588 2b3e 2d65 7fbe aeaf 6abd
000003b0: 286c 323c 3fec 193e d48b 143e 053d 3dbd
000003c0: d775 b93c 77d1 c3bd 8e8b 613e 5cd1 14be
000003d0: 619b 523d 0b36 193d 317e 1abe b0c7 febd
000003e0: 8455 ebbb 490c d4bc 5de0 0fbe 3e4c 27bd
000003f0: 9896 2c3e 24ac 98bc 6f88 0ebc a60e ea3d
-0.29120797 0.020195719 -0.16700783 0.14852959 -0.23687816 0.044095237 0.17498253 0.06966408
0.077262565 -0.2582403 0.28452542 -0.13560738 -0.002082409 -0.1584208 -0.28399137 0.32004124
-0.22529311 -0.020174887 0.059389938 -0.13067344 0.35616183 0.15939276 0.12638432 0.05383044
0.08241933 -0.14057712 0.013191741 -0.2624415 0.14965491 0.12450542 0.053190514 -0.092723414
0.15660699 0.12857163 0.19310862 0.06084562 -0.29582918 0.17424184 -0.13655047 0.10065504
-0.018391665 -0.07089153 0.119542606 -0.11867897 0.1459432 0.16308828 -0.17331132 0.22100438
0.064037256 0.26501516 0.07800302 0.08800216 0.041578956 -0.05036655 0.14496915 0.086333275
-0.25892982 0.013482777 -0.034183823 -0.22111236 0.08584081 -0.034993626 -0.0804822 -0.24544547
0.1258691 -0.1472613 0.09464651 0.14812545 0.20057619 -0.17581442 0.2571745 -0.029531311
0.12788196 -0.15308954 0.15728256 -0.16617662 -0.15191957 0.14243008 -0.057495914 0.16002066
0.14003058 -0.16548552 0.084224716 -0.09693827 0.029797545 0.018367039 0.3720345 0.06500498
0.30820462 -0.26594597 -0.113330655 0.06746052 0.018624002 0.18936852 0.0062754094 0.20612854
-0.14908172 0.1325438 -0.2619574 -0.0110758515 0.09056903 0.017150048 0.037630588 0.079386316
0.16474617 0.22840755 0.023079364 -0.15032203 -0.01218977 -0.10212037 -0.079972476 0.20949915
0.044415567 0.10276714 -0.06529636 -0.2063131 0.15300855 -0.027308151 -0.00110132 0.23125948
0.023154235 0.10236184 -0.13627802 -0.025450295 0.19286919 0.07004949 -0.105252355 0.095916785
-0.11594177 -0.21403731 0.069821574 0.18417087 0.062165495 0.015466388 0.33637658 0.1405321
-0.07863271 -0.12261207 -0.077911235 0.09827761 -0.03331557 -0.16324195 0.108317986 -0.010254418
0.10050828 -0.15600364 -0.15481722 -0.08163163 0.0855136 -0.06562792 -0.11249562 0.19016534
0.17859331 -0.18072608 0.10307332 -0.05642044 0.12447999 -0.07447679 -0.007805839 -0.18098137
0.36599925 0.23226716 0.1587536 0.23015133 -0.08268044 0.06881621 -0.10809784 -0.22503322
0.070614316 -0.22247519 -0.1289756 -0.27719635 -0.059569597 0.2645623 0.19804667 0.17703637
0.07711385 0.05886046 0.14138417 0.048119374 0.014278199 -0.11711265 0.051544335 -0.07409358
0.09504822 0.0476024 0.003434452 -0.15129334 -0.1722838 -0.064823516 -0.117767215 -0.08030191
-0.1486695 0.03685331 -0.12915815 -0.07374595 -0.16984558 -0.15368745 0.058124434 -0.0045213164
-0.18508191 -0.02122839 -0.0063998317 0.054591645 -0.11460108 0.15992309 0.14810026 0.046218473
0.061532963 0.005250473 0.078752644 -0.17143536 0.060773637 0.16705382 -0.19668967 -0.09710038
0.18607776 -0.0589269 0.0584191 0.13744465 0.09627596 0.023721343 0.21544576 -0.029932128
-0.06576008 -0.103317514 -0.114301786 0.024787927 0.16086604 -0.033212833 -0.2572933 -0.060358923
-0.23205583 0.16751392 -0.24940939 -0.057296447 0.010890044 0.15031527 0.14506465 -0.04620077
0.022639198 -0.095614366 0.22025892 -0.1453299 0.051417712 0.037405055 -0.150872 -0.12440431
-0.007181825 -0.025884764 -0.14050432 -0.040844195 0.16854322 -0.01863677 -0.0086995205 0.11428575

rnn.bias_ih_l0 f4 [32]
00000000: 5fb8 d03c 7299 40bd 2cd9 42be cb8e 27be
00000010: c172 d6bd 221a cebc 4cfe 883b 9e24 eabc
00000020: 6483 0d3d afdb 703e 60f7 5b3d 918c 7a3d
00000030: 7e50 3f3e 81ba 56be cf96 173d 6e2a 04bd
00000040: e6a9 02be 9780 6ebe 2006 9a3d 7fb8 fcbd
00000050: 8ed2 743d f8de e93d b3d6 b2bd 87a6 90bd
00000060: b11f 42bd 896d 7b3d c303 40bd 7c71 e4bd
00000070: 1d1d 75be 9e4b 0ebe fbd3 bfbd d05c 28bd
0.02547854 -0.047021337 -0.19028157 -0.16363065 -0.10471106 -0.025158945 0.004180705 -0.028581914
0.034549132 0.23521303 0.053702712 0.06116921 0.18683049 -0.20969583 0.037009057 -0.032267027
-0.12760124 -0.2329124 0.075206995 -0.12339877 0.059771113 0.11419481 -0.08732357 -0.070630126
-0.047393505 0.061383758 -0.046878587 -0.11154458 -0.23936887 -0.13896033 -0.09366604 -0.041104138

rnn.bias_hh_l0 f4 [32]
00000000: 7e70 bbbd 0b6d 0e3e 0a0f e8bd 97a0 ac3d
00000010: 784c d8bd d274 6fbd a8ec cd3d 0c7b 37bb
00000020: 3c76 2a3e 8cd4 d73d 6211 9e3e 3540 5e3d
00000030: e46d 2f39 8774 76bd 72c2 febc 16dd 85bd
00000040: 1d57 36be 9998 05be 30bf 80bd ce84 363d
00000050: 4189 853c 7df0 173d e005 2bbe 3272 9d3d
00000060: fb0c 283d bebc 773d 00e9 413e 7c31 c93d
00000070: 3758 c5bc e6e6 0f3e e3c5 fb3d facf 573d
-0.091523156 0.13908784 -0.113309935 0.084290676 -0.1056146 -0.058461018 0.10054904 -0.0027996926
0.16646665 0.10538587 0.30872637 0.05426045 0.00016730238 -0.060169723 -0.031098578 -0.065363094
-0.17806669 -0.13046493 -0.06286466 0.044560246 0.0163008 0.037094582 -0.1670146 0.07687797
0.041028004 0.060482733 0.18936539 0.098238915 -0.024089916 0.14052925 0.12293603 0.052688576

classifier.weight f4 [4, 32]
00000000: 6859 723e 44f3 023e 025d 83be 57c1 093e
00000010: 305c 293e 9bf2 98be 6f0b 003e 7fb1 633e
00000020: 10de 6c3e 9b00 afbd 39f9 533e 99b2 14be
00000030: 231b c73e 4f6e a03d 03aa 05be 9244 a23e
00000040: c2df e7be 0590 7a3e 2118 73be b1e1 c43e
00000050: 75bc 1cbe 5643 37be fd65 74be 9644 cd3e
00000060: ca6a 903d b042 97bc 1337 873e e9ad 5cbe
00000070: d7ac 82be 3a23 173f efc9 40bc 6e8f 0d3f
00000080: 2657 d23e 81c2 e03d 9ef7 87be 745c 583e
00000090: 3077 1ebe 413e b2be fa1d 803e 171a 0c3c
000000a0: 5e67 db3e d3e4 eabe ca7e 3d3e 25ee 97be
000000b0: fe3a 9f3d 24ec 1dbe 8386 283e 1b77 c83e
000000c0: f836 ebbe 710d 533e 1a82 0abf 8ae2 933e
000000d0: 9fed 0a3d 7cf1 0ebd a0be 4dbd 8ce0 cb3e
000000e0: 45bc 5bbd 1263 eabd 3ffd be3e ec23 b5be
000000f0: c856 afbe ba13 fb3e 32d5 df3b e6e2 c13e
00000100: c6e6 b13e ae02 e13e 844a 80be 9a53 1d3e
00000110: ac9f 4f3d 3d4c c1be da51 0f3e d5d7 7b3d
00000120: e669 983e 8779 f7be 7b8a 5f3e f254 7cbe
00000130: e28e d73d 7bdb 46be e3b7 ab3d 3a1d e93e
00000140: f8e9 efbe 70a5 8e3e e9e2 d1be 287a 14bd
00000150: bc69 b5be 5b29 93be 7fa0 11be 77af e03e
00000160: c447 333e 4bdf 83be 06fd 083e 6d4a 05be
00000170: 30c8 d6bd 2f79 e23e 1f21 593d 8539 063f
00000180: d413 8a3e df70 18be 7b70 1abd 6249 cb3d
00000190: b351 9c3e 7058 25be a9b7 913e 4d92 8c3d
000001a0: 5d63 083f 5741 c3be e6e1 5d3e afc7 f3be
000001b0: e5ec 123f fd20 c83e c597 0abc 1ca7 063e
000001c0: f51e ba3b 2fcc 793e 03e1 813d 8f29 6a3e
000001d0: 6658 913b a5f8 a2be 9df9 d4be e3a1 bf3e
000001e0: 88c6 abbe 90f8 b2bd 15bd d63d 9816 ebbe
000001f0: 3a7b 69be cde0 b13e ab21 00be 1968 913e
0.23666918 0.12788111 -0.25656897 0.1345266 0.16539073 -0.29872593 0.12504362 0.22235678
0.23131585 -0.08545037 0.2070054 -0.14521255 0.3888789 0.0783354 -0.13053136 0.3169294
-0.452879 0.24469002 -0.23739673 0.3845344 -0.15306266 -0.1789678 -0.2386703 0.4009139
0.070516184 -0.018464416 0.26409206 -0.21550716 -0.2552249 0.59038126 -0.011766895 0.5529698
0.41082114 0.10974599 -0.26556104 0.21129018 -0.15475154 -0.3481312 0.2502287 0.008551142
0.428523 -0.45877704 0.18505397 -0.29673877 0.07774924 -0.15422112 0.16457562 0.3915337
-0.45940375 0.20610596 -0.5410477 0.28883773 0.03391802 -0.034898266 -0.050230622 0.39819753
-0.053646345 -0.114446774 0.37302586 -0.3537897 -0.34245896 0.49038488 0.006830835 0.37868422
0.3474638 0.43947357 -0.2505685 0.15363923 0.050689384 -0.37753478 0.13996068 0.06148513
0.29768294 -0.48334906 0.2183017 -0.24641779 0.105252996 -0.19419663 0.08384683 0.4553011
-0.46858191 0.27860594 -0.4099343 -0.03624931 -0.3543223 -0.2874249 -0.1422138 0.4388387
0.17507845 -0.25756297 0.13377771 -0.13016672 -0.104874015 0.4423308 0.053010102 0.5243152
0.26968253 -0.14886807 -0.037704926 0.09926106 0.30531082 -0.16147017 0.28460434 0.06863842
0.53276616 -0.38135788 0.21668205 -0.47613284 0.5739272 0.39087668 -0.008459036 0.13149685
0.00567996 0.24394296 0.06341746 0.22867416 0.0044355867 -0.31830326 -0.4159669 0.37428197
-0.33549905 -0.08738816 0.10485283 -0.45915675 -0.22800913 0.34741822 -0.12512843 0.28399733

classifier.bias f4 [4]
00000000: b4bb e03e 0525 033f ea37 8b3e d0ff a73e
0.43893206 0.5122836 0.27191097 0.32812357
