save/all_kc_att_sp_170.pt (torch, 232493 bytes, 6 tensors)

emb_layer.weight f4 [170, 100]
00000000: 0000 0000 0000 0000 0000 0000 0000 0000
00000010: 0000 0000 0000 0000 0000 0000 0000 0000
00000020: 0000 0000 0000 0000 0000 0000 0000 0000
00000030: 0000 0000 0000 0000 0000 0000 0000 0000
00000040: 0000 0000 0000 0000 0000 0000 0000 0000
00000050: 0000 0000 0000 0000 0000 0000 0000 0000
00000060: 0000 0000 0000 0000 0000 0000 0000 0000
00000070: 0000 0000 0000 0000 0000 0000 0000 0000
00000080: 0000 0000 0000 0000 0000 0000 0000 0000
00000090: 0000 0000 0000 0000 0000 0000 0000 0000
000000a0: 0000 0000 0000 0000 0000 0000 0000 0000
000000b0: 0000 0000 0000 0000 0000 0000 0000 0000
000000c0: 0000 0000 0000 0000 0000 0000 0000 0000
000000d0: 0000 0000 0000 0000 0000 0000 0000 0000
000000e0: 0000 0000 0000 0000 0000 0000 0000 0000
000000f0: 0000 0000 0000 0000 0000 0000 0000 0000
00000100: 0000 0000 0000 0000 0000 0000 0000 0000
00000110: 0000 0000 0000 0000 0000 0000 0000 0000
00000120: 0000 0000 0000 0000 0000 0000 0000 0000
00000130: 0000 0000 0000 0000 0000 0000 0000 0000
00000140: 0000 0000 0000 0000 0000 0000 0000 0000
00000150: 0000 0000 0000 0000 0000 0000 0000 0000
00000160: 0000 0000 0000 0000 0000 0000 0000 0000
00000170: 0000 0000 0000 0000 0000 0000 0000 0000
00000180: 0000 0000 0000 0000 0000 0000 0000 0000
00000190: 55c6 e7bf 731f 8c3f 146c 313f 184b 2c3e
000001a0: 6269 b5be e8dc 063f e614 163f 1345 d93e
000001b0: 2264 dbbe c25d 98bf 9944 01bf 9266 92bf
000001c0: 5d3d e93f 20c8 2ac0 5494 27bf 76c9 dc3f
000001d0: cf6d d43f 6745 5e3f 10a7 54bf 6847 d4bc
000001e0: 8b25 903f 6ac4 0f40 f5e4 d63f 1d90 4cbf
000001f0: 8ad1 d7be e185 93bf eeea 43bf 5ecc 78bf
00000200: 458a acbf f7ed 9cbe 0046 a6be 68d5 823f
00000210: 201a 263f cac9 60bf dcd3 113e a854 d33f
00000220: 0b29 afbf 5586 51bf 984a a63e 2216 67be
00000230: ce57 f63e a4dc 26bf e440 b43f 03e4 cfbd
00000240: 5207 8bbd 61c7 b53e 132d 2fbf 05f2 9ebe
00000250: 9f6c b7bf 9140 903d f8bc 23be dd7b 31bd
00000260: dc61 47be 6013 8fbe ebe0 4f3b 4c52 b63f
00000270: b66c a0bf ee00 47bf 6111 153d 21cb 0740
00000280: c44f cbbd efb6 97be 635f 5dbe 42f4 c1be
00000290: 44a1 083f 6ae1 843f 0944 9d3f 0146 ecbe
000002a0: 12fe 223f d468 0dc0 65d8 0e40 20f5 96bd
000002b0: 8c1e 9c3f 042e 54bf ce5d e13e 41da 3b3f
000002c0: 781a d93b 73cc 743f 3fb4 d93f 779c 15bf
000002d0: 7c65 04bf 0e1c 3dbf 17e6 fb3f 51db 253f
000002e0: 3714 3cbe 4842 92bf 698c 18c0 983f 52bf
000002f0: 8e21 2fbf 909b a63f 683c 8c3f 7866 ea3e
00000300: de86 fdbe b410 ee3e c2ce bd3d 2569 e23e
00000310: f42e b2be 5c79 673e b8df 8d3e e0eb b93f
00000320: 2ec2 3abf 23ea 22bf f556 0dbe e7b4 7b3e
00000330: 73e6 4dbf 8e92 50bd a0c2 bcbe a617 40bf
00000340: 9cd6 3f3f b1c5 a0bf c62c 0b3e d027 a53f
00000350: 2ab4 233f 310b 74bf 1296 0fbf 0b68 1040
00000360: f096 e6bf eda8 f33e 45ad 5cbe d290 243f
00000370: 3fc7 223f 1dac e8be 14e5 9bbf 2dd1 223f
00000380: 2d69 9d3e 3b64 f33e e648 1f3f c347 57bf
00000390: 6e24 643f 9e1e 0ebf 3ab3 713e af85 383f
000003a0: 546a 0ebf 32de 9cbd 3338 dfbc ea2c 2ebf
000003b0: 38e7 7f3f 2a00 b9bf ea97 6fbf 87b0 fabf
000003c0: e4ca c23f 2ea5 b83f 48cd 923f ba5b b5bf
000003d0: 41a6 afbf 16f2 21bf 764c 0cbf 7d60 a1be
000003e0: 4f9e 01be db9f e7bf 02d0 ac3e 674b e73f
000003f0: 980d b73e ea56 92be 4fdc 273f 12a9 29c0
0.0 0.0 0.0 0.0 0.0 0.0 0.0 0.0
0.0 0.0 0.0 0.0 0.0 0.0 0.0 0.0
0.0 0.0 0.0 0.0 0.0 0.0 0.0 0.0
0.0 0.0 0.0 0.0 0.0 0.0 0.0 0.0
0.0 0.0 0.0 0.0 0.0 0.0 0.0 0.0
0.0 0.0 0.0 0.0 0.0 0.0 0.0 0.0
0.0 0.0 0.0 0.0 0.0 0.0 0.0 0.0
0.0 0.0 0.0 0.0 0.0 0.0 0.0 0.0
0.0 0.0 0.0 0.0 0.0 0.0 0.0 0.0
0.0 0.0 0.0 0.0 0.0 0.0 0.0 0.0
0.0 0.0 0.0 0.0 0.0 0.0 0.0 0.0
0.0 0.0 0.0 0.0 0.0 0.0 0.0 0.0
0.0 0.0 0.0 0.0 -1.8107401 1.0947098 0.6930554 0.16825521
-0.35431963 0.52680826 0.5862564 0.42435512 -0.42849833 -1.1903613 -0.50495297 -1.1437552
1.8221852 -2.6684647 -0.65460706 1.7248981 1.6596011 0.8682465 -0.8306742 -0.025912955
1.1261457 2.2463632 1.6788622 -0.799074 -0.42152053 -1.1525232 -0.7653035 -0.9718684
-1.3479697 -0.30650303 -0.3247528 1.0221376 0.64883614 -0.87807906 0.14240974 1.651021
-1.36844 -0.818456 0.32478786 -0.22567037 0.48113865 -0.6518042 1.4082303 -0.10150912
-0.067885056 0.35503677 -0.6842815 -0.3104402 -1.4330024 0.07043565 -0.15990055 -0.043331016
-0.19470924 -0.2794447 0.0031719755 1.4243865 -1.2533176 -0.77735794 0.036393527 2.121773
-0.099273235 -0.29631755 -0.21618418 -0.37881666 0.5337107 1.0381291 1.2286388 -0.4614716
0.6366893 -2.2095232 2.2319577 -0.07370973 1.2196822 -0.82882714 0.4401688 0.73379904
0.00662547 0.95624465 1.7008132 -0.5844187 -0.5171735 -0.73870933 1.9679593 0.64787775
-0.18367086 -1.1426477 -2.38357 -0.82128286 -0.68410575 1.3016224 1.0955935 0.45781302
-0.49516958 0.46497118 0.092679515 0.44220844 -0.34801447 0.22604889 0.27709746 1.4525108
-0.72952545 -0.63638514 -0.13802703 0.24580728 -0.8042976 -0.050921015 -0.36867237 -0.75036085
0.7493684 -1.2560331 0.13591298 1.2902775 0.63946784 -0.95329577 -0.56088364 2.2563503
-1.8014812 0.47589818 -0.21550472 0.6428348 0.63585275 -0.45443812 -1.2179284 0.63600427
0.30744305 0.47537407 0.6222061 -0.84093875 0.8911809 -0.5551547 0.23603526 0.72078985
-0.55630994 -0.07659568 -0.027248478 -0.68037283 0.99962187 -1.4453175 -0.9359118 -1.9585122
1.5218167 1.4425409 1.1468897 -1.4168618 -1.3722612 -0.6326002 -0.5480417 -0.31518927
-0.12658046 -1.8095659 0.33752447 1.8069886 0.3575256 -0.28581935 0.6557054 -2.6509442

att.in_proj_weight f4 [300, 100]
00000000: c5ca 05bd 0ae9 ee3d 30b0 22bd 23ab c43d
00000010: 10fb 8ebd 94ae 143c cd9e 44bc 8382 c7bd
00000020: 6fca 863d 7f69 143d 6fc0 92bc 0d66 77bc
00000030: 7208 c13d aa0c 78bd 1aef 3ebd 1416 1a3d
00000040: d9b5 6b3b 4d33 b93c a8d9 3ebd 01c3 383b
00000050: 8f0e 86bc 1745 a33d fb8d d8bd 7ed8 933d
00000060: fc68 bfbd c7d3 32bc 0b85 f2bd 5a89 573d
00000070: f69b b73d e980 afbd 07a6 bcbd 0077 d2bd
00000080: 7204 e5bd fb9e 2abd 8b93 82bd 9730 bb3d
00000090: b239 edbd 34d7 533c e4cf bf3d f420 10bd
000000a0: b589 ab3d fb1b 493b 0406 ab3d aeb6 ee3d
000000b0: 7b4f 6cbd 78d8 833d 0747 52bd 6c3d b8bd
000000c0: a292 5fbc 1a85 3a3d 95c5 ad3d 9c42 bb3d
000000d0: 6276 373d 0098 e1bd b4f1 b43d de03 00bd
000000e0: a9e7 da3d fd84 21bc 5741 58bd e92c e9bd
000000f0: 27cb 40bd 127a 52bc 9cb2 c7bd c52f 853d
00000100: e7aa fcbc 9644 87bd ea08 c9bd 68f7 07bd
00000110: 8f7c fcbc cd01 03bd cfb7 4d3c 8a9a c83d
00000120: df1b 203d ba1e ab3d cb33 86bd 3af4 893d
00000130: 099b 343d 9950 3a3d 6dbf bc3d 4570 75bd
00000140: ed08 58bc 605d e6bd 2e36 b8bd f3e6 2ebd
00000150: d76e d43d e84f 9f3b 7b1a 0cbd 5a6b 8cbd
00000160: 7f4c b1bd 1b72 a6bd f9f0 b7bd d7c9 abbd
00000170: 26d2 ab3d 4c48 1bbc 117b 3b3d 6a8f d63d
00000180: 3ddc a33d 0595 f1bd 1dbc fbbc 8eca 043d
00000190: 492d f93d 68dd ecbc f087 223d 022f e2bd
000001a0: 7ba4 183d ef76 50bc 0eb6 373d ff87 183c
000001b0: cf1b 853b 37a8 0f3d 43ee c13d af8d 12bd
000001c0: 58e4 3d3d 81fc 2f3d 70c7 e1bc 0956 34bd
000001d0: 2133 edbd 8a4d 90bc 4003 7abd c79d 643d
000001e0: 0ed6 613d 16cc e13d 64cf 9bbd 9237 8a3d
000001f0: 79bb 13bc 3c33 d33d 7f4b 2fbd 04d9 adbc
00000200: 7e13 223d 01a6 8bbb af87 cd3b 13dc c73d
00000210: a2b5 d73d 54b7 493c 1033 253d 8df1 47bd
00000220: 36f3 eb3d e29e 91bb dae4 853d 5ef7 8abd
00000230: 145c 99bb 12d8 c13d 0fff 7c3d c9e6 b5bd
00000240: bc22 5bbb e45b 853d f1a8 b7bb 50d7 633c
00000250: 18d7 003c e6fc a7bd b148 6abb a570 f43d
00000260: c96a 9abc f770 ca3d ab33 0fbc e430 da3d
00000270: 2c58 803b e9e6 573d 24e7 223d aa87 f1bd
00000280: 8053 fe3a 8ea0 9e3c 2c3c 983c fc82 93bd
00000290: d26e 44bd 78f5 4d3d cc00 efbd f412 a3bd
000002a0: bc0d c7bd 7170 84bd 0187 cdbd 1493 c33d
000002b0: e20b bdbd 6b4c 973d cf03 c63d 42cd 5c3d
000002c0: bd7c 38bd fd83 463c bcf0 993b 7313 de3d
000002d0: d33e 83bd 45e5 f23d 1256 b23d dc48 ebbd
000002e0: 1e02 e43c 9d2a 1abd 8ba6 80bd e96a d63d
000002f0: 5090 9bbd 838d ef3d da23 3a3d f0ab e1bd
00000300: b5b7 5c39 a2c4 723c f58f e3bd b6fe de3d
00000310: cfbb f63d 5f70 803d 766a cebd 5443 f63d
00000320: 96b3 7b3c c727 413d 9614 04bc 3376 e0bd
00000330: cc31 3dbd d377 1d3b dca7 4d3c 8189 1cbc
00000340: a266 6f3b a3db 8cbc 85b7 14bd ebcc 823c
00000350: 9fe8 a93d 4ad4 d7bd fe17 f73d 7636 d43d
00000360: bb95 5b3a a0e8 0d3c 668f 483b ca59 c1bd
00000370: c6b3 acbd cc63 93bd c4df 2a3b 52b0 e63c
00000380: a6c4 48bd 9d0f 3fbd a430 3abc 4484 623d
00000390: 6043 f03d 1a31 363d 84ee dabd 3d0c e13d
000003a0: 91b0 c8bd 52fa 843b ea5f 663d 6ba9 f73c
000003b0: 1398 e6bc 8ccc 02bd c0d9 2dbd 120f 19bd
000003c0: 0d7f f6bc 18ef 803d 6610 7d3d 526d b0bb
000003d0: 20b4 44bc d177 e63b a83d 953c d1b1 933d
000003e0: 890d 783d 0ee4 073d 8810 3dbd 9955 95bb
000003f0: b46b a53d 55e9 ee3d 1ee1 f7bc 3154 43bd
-0.03266408 0.116655424 -0.039718807 0.09602954 -0.0698148 0.009074826 -0.012000752 -0.0974169
0.0658158 0.03623342 -0.017914025 -0.015100014 0.09425439 -0.060558952 -0.046614744 0.03761871
0.0035966544 0.02260747 -0.046594292 0.0028192403 -0.016364364 0.07972162 -0.105739556 0.07219027
-0.09346196 -0.0109147495 -0.11841782 0.052621223 0.08965294 -0.085695095 -0.09211355 -0.10276604
-0.111824885 -0.04165552 -0.06375798 0.09140127 -0.1158327 0.012929726 0.09365824 -0.035187677
0.08375875 0.0030686844 0.08350757 0.11655937 -0.057692986 0.064377725 -0.05133727 -0.0899609
-0.0136458 0.04553709 0.084849514 0.09143564 0.044790633 -0.1101532 0.08835164 -0.031253688
0.10688717 -0.009858367 -0.052796688 -0.11385519 -0.04706874 -0.012846487 -0.09750864 0.06503252
-0.030843211 -0.066048786 -0.09816153 -0.03319493 -0.030821113 -0.03198414 0.01255603 0.09795101
0.03908908 0.0835547 -0.065528475 0.06736036 0.044093166 0.04548702 0.09216199 -0.05992152
-0.013185722 -0.112482786 -0.08994709 -0.04270072 0.103727035 0.0048618205 -0.03420494 -0.06856413
-0.086571686 -0.08127233 -0.08981509 -0.08388107 0.08389692 -0.009477686 0.045771662 0.10476573
0.080009915 -0.11796001 -0.030729348 0.032419734 0.121668406 -0.028914168 0.03968042 -0.11044122
0.037266236 -0.0127236685 0.044851355 0.009309768 0.004062153 0.03507253 0.09469273 -0.03577965
0.046360344 0.042965416 -0.02756092 -0.044027362 -0.11582018 -0.017615099 -0.061038256 0.05581453
0.05513578 0.110252544 -0.07607916 0.067488804 -0.009016865 0.103125066 -0.042796608 -0.021221645
0.03956937 -0.0042617326 0.0062722783 0.09758773 0.105326906 0.012311775 0.0403319 -0.048814345
0.11520998 -0.004443989 0.065377906 -0.06785463 -0.004680166 0.0946504 0.06176668 -0.088819094
-0.0033437451 0.06511667 -0.005604856 0.013906315 0.007863782 -0.082025334 -0.0035748894 0.11935548
-0.018849747 0.098848276 -0.008740346 0.106538564 0.003916761 0.052710447 0.039771214 -0.11793454
0.0019403547 0.019363668 0.01858338 -0.07202718 -0.04795725 0.050282925 -0.11670074 -0.079625994
-0.097194165 -0.06466759 -0.100355156 0.09549537 -0.09230782 0.073876224 0.09668695 0.053906687
-0.045040835 0.012116429 0.004697887 0.108435534 -0.06408467 0.11860136 0.08707823 -0.11488506
0.02783304 -0.037638295 -0.062817656 0.1046961 -0.07595885 0.11696913 0.045444347 -0.110191226
0.00021049271 0.014817389 -0.11111442 0.10888426 0.120475404 0.06271433 -0.100788996 0.120245606
0.015362641 0.047157075 -0.008061549 -0.10960045 -0.046190068 0.002402772 0.012552228 -0.009554268
0.003652968 -0.017194575 -0.03630783 0.015966853 0.08296322 -0.10538538 0.12065123 0.1036195
0.00083764986 0.008661419 0.003060305 -0.09440954 -0.084327266 -0.07196769 0.0026073316 0.028160248
-0.049015664 -0.04664575 -0.011364136 0.05530192 0.11731601 0.04448042 -0.106900245 0.109886624
-0.09799302 0.004058161 0.056243815 0.030232152 -0.028148687 -0.031933352 -0.04244399 -0.037367888
-0.03008988 0.062956035 0.061783217 -0.0053841257 -0.012005836 0.007033326 0.018217877 0.0721165
0.060559783 0.033176474 -0.046158344 -0.004557323 0.08077183 0.11665598 -0.030258711 -0.047687713

att.in_proj_bias f4 [300]
00000000: a12e 11bb 3101 1439 4628 4abb b1df bc3a
00000010: 48e3 e43a d33a 363b e85d 143b 7a56 4bbb
00000020: 23dd eebb f319 1ebb a0e0 4fbb 5b14 21bb
00000030: 8dfe 1abb 7911 a1b9 cb22 213a 81da 283c
00000040: c0ab cb3b 1a92 613b a8cb 96bb 4887 57ba
00000050: 767b 94b9 88e3 903b 56e0 aabb db8a 9f3b
00000060: 5133 c2b9 02a3 ab3a d618 f43b 6898 57bb
00000070: bd88 743b 8a24 06bb 080d a1b8 8eea 213c
00000080: c094 c2ba cfff 033b 84a2 6bbc 07a4 daba
00000090: 54ca 63bb 4b7c 34bb ca1b b4ba 61fb 91bb
000000a0: 90b7 32bb 00ac 8e3b 9170 b33b 62f8 cfbb
000000b0: 62be 2b3b 9543 623a ca91 303b 436b bc3a
000000c0: b3ad e1bb 03e2 7d3b 0e49 6abb f56d 68bb
000000d0: dd76 58bb 3c93 e7ba 141b 8fbb 9843 f4bb
000000e0: 971b 26bb efef f1ba 2be5 f33a 8b4e 39bc
000000f0: ad1f 5b3c b619 74bb 7589 b83b c527 943b
00000100: 37cb 82bc c151 543b a28b 1e3b efa1 213b
00000110: 275a 07ba b55c b7bb 53fd 5d3b ee52 343b
00000120: 9214 16bc 3a7b e13b 4756 2f3c e586 b0bb
00000130: 141c 21bc 64e4 883a 7cab 01bb e538 9abb
00000140: 8109 22bb 7886 8ebb 5530 653b bc27 87bb
00000150: 8241 a5bb e09e 08bb 65ba bcbb 36ba bebb
00000160: 5029 8aba f549 f2bb c151 a9bb 9fb1 96bb
00000170: 60e7 d0bb 34c6 8a3a 601b 583c 4eb2 523b
00000180: 3a01 583b 4fca 43bb a4c4 80bb 0441 caba
00000190: 2441 8a2f d123 b92f a6bc 022f bdae 19af
000001a0: 0d56 7f2e db59 0eaf 3352 122f 53dd 86ae
000001b0: 8b70 282f 1da2 97af ed60 b430 6818 9b2f
000001c0: a7b2 1030 7d36 dc2e b8e9 222e be11 91af
000001d0: f064 3cb0 da92 6faf ec41 af2c d054 79af
000001e0: 0326 d92f 8ac8 6330 cc9f cf30 42dd d62f
000001f0: b3c2 caaf ff91 2f30 2f9b 0faf ee44 31ae
00000200: 155a 34b0 2e7a 65ae f7f3 0caf b206 2bb1
00000210: 1664 b3af 79e0 00b0 b22c 27b0 4de6 95ad
00000220: 6c23 0630 1ad7 baae b015 07af 09fd 722f
00000230: 6dd5 b32e 5e44 d2ae b7f2 4030 738d 3830
00000240: 18cb 20af 5a7e b1b0 8e1f 6430 667d d5af
00000250: f94f ffae b06b 4aab 0cf1 122e c3a5 252f
00000260: 5513 292e 68dd 962e 02fd 302f eca1 1230
00000270: f2c4 9cac 2878 feaa f6bc d3ad ec91 9a30
00000280: f2c5 39af 6254 3d2f 6ae3 5aae 8003 57af
00000290: fc7b 5f30 8aa4 232f b750 892f 25a9 2b2d
000002a0: be59 1b2f 8785 862e 9857 af2e c9dd 80ae
000002b0: 1aed 2430 f960 d4ad 9de4 2db0 0b38 d2b0
000002c0: caed 922f 00d3 542f 8d7c 362f 7202 8ead
000002d0: fa5b e5ae 4bad 082e 2405 0d31 dcd1 6fb0
000002e0: 923d 4eb0 3f60 2aae 6a97 e7b0 acee 10b1
000002f0: 7f5f caaf 00ce 01af cdb3 71b1 0415 43b0
00000300: c09a 90af 7db1 1e2f 2394 ac30 2c64 dd30
00000310: 6f1f b72f f427 1fb0 63a3 60b0 711f e6af
00000320: bfae 193c fc77 45bb 816c ad3b 3a60 873b
00000330: affa 62bb d2a0 49bb f4ac 1d3b 7c11 99bb
00000340: a9c6 1cbb 05dd 95bb aa7e 923b baa1 fabb
00000350: 0916 e8bb ad4e a83a a6fa 353a 6cdd c53a
00000360: f7e1 e5ba ce93 ee3b 99f9 fa3b b425 33bb
00000370: b569 74ba 8ccd 02bc de63 44bb afb0 3c3b
00000380: 15e2 8ebb ca60 1338 3911 c73b dca1 f5ba
00000390: 2782 f9bb 256f 1cba 567b 0f3c d277 3cb9
000003a0: b1fb 05bb eba8 8b39 7875 c2bb 8d95 cabb
000003b0: 8eb1 be39 fe5e 8fbb 15cd 053c c4c5 75bb
000003c0: d344 8d3b 2840 3cbb f06d 1bbb 86ae e03a
000003d0: 8f0a 69bb aa4e 963b 137a 7d3b 0f3b b23b
000003e0: bf96 533b 52c2 2fbb 1d4d 513b 5b63 d13b
000003f0: 95cf e63b 1b74 143b c389 183c 668f a83b
-0.0022153037 0.00014114824 -0.0030846759 0.0014409927 0.0017462755 0.0027806058 0.002263898 -0.0031026886
-0.007289545 -0.0024124354 -0.003171958 -0.0024578783 -0.002365026 -0.0003072133 0.0006146847 0.010306002
0.0062155426 0.0034419359 -0.0046019144 -0.00082217576 -0.00028320745 0.004421655 -0.005214731 0.004868848
-0.00037040797 0.0013094845 0.0074492497 -0.0032897238 0.0037312948 -0.0020468556 -7.6795055e-05 0.009882582
-0.0014845356 0.0020141487 -0.014382008 -0.0016680964 -0.0034758048 -0.0027539905 -0.0013741192 -0.0044550155
-0.0027270056 0.004354 0.0054760654 -0.006346748 0.0026206006 0.00086312863 0.0026942366 0.0014375228
-0.0068871616 0.003873945 -0.003574911 -0.003546593 -0.0033029832 -0.0017667781 -0.0043672416 -0.007454347
-0.0025346035 -0.0018458347 0.0018607726 -0.01131023 0.013374251 -0.003724677 0.0056316205 0.0045213425
-0.015966041 0.0032397362 0.0024192114 0.002466317 -0.0005163275 -0.0055957683 0.0033872917 0.002751525
-0.009160178 0.006881145 0.010701722 -0.0053871744 -0.0098333545 0.0010444042 -0.001978605 -0.0047064894
-0.0024724903 -0.004349526 0.0034971435 -0.0041246098 -0.0050432095 -0.002084665 -0.0057595246 -0.005820538
-0.0010540877 -0.0073940703 -0.0051672165 -0.004598811 -0.0063752383 0.0010587634 0.01319012 0.0032149735
0.0032959715 -0.0029875224 -0.0039296914 -0.0015430753 2.514834e-10 3.3676753e-10 1.1890453e-10 -1.3977348e-10
5.8056716e-11 -1.2946748e-10 1.3307826e-10 -6.1329296e-11 1.5319494e-10 -2.7581928e-10 1.3124272e-09 2.8211677e-10
5.2640775e-10 1.0014121e-10 3.704212e-11 -2.6387953e-10 -6.853744e-10 -2.1789096e-10 4.981118e-12 -2.267655e-10
3.949908e-10 8.28671e-10 1.5106649e-09 3.9083586e-10 -3.6881928e-10 6.38721e-10 -1.3060907e-10 -4.0306362e-11
-6.5611633e-10 -5.217709e-11 -1.28196e-10 -2.488758e-09 -3.2631026e-10 -4.6885124e-10 -6.081776e-10 -1.7041613e-11
4.8799254e-10 -8.4965104e-11 -1.2285883e-10 2.2099668e-10 8.1778896e-11 -9.561839e-11 7.019411e-10 6.713982e-10
-1.4624069e-10 -1.2914356e-09 8.299076e-10 -3.8833575e-10 -1.16102634e-10 -7.1914263e-13 3.341065e-11 1.5065553e-10
3.844332e-11 6.86054e-11 1.6096993e-10 5.3344595e-10 -4.455652e-12 -4.520284e-13 -2.4071838e-11 1.1246448e-09
-1.6895976e-10 1.7219429e-10 -4.9769446e-11 -1.955538e-10 8.130312e-10 1.488322e-10 2.4977506e-10 9.757782e-12
1.4129051e-10 6.117334e-11 7.9736384e-11 -5.860163e-11 5.9999794e-10 -2.4144674e-11 -6.326191e-10 -1.5295439e-09
2.6726205e-10 1.935625e-10 1.6597053e-10 -1.6144617e-11 -1.0430053e-10 3.1076735e-11 2.0521123e-09 -8.724592e-10
-7.502986e-10 -3.873901e-11 -1.6850497e-09 -2.1090427e-09 -3.681144e-10 -1.1805668e-10 -3.517232e-09 -7.097045e-10
-2.6303404e-10 1.4433073e-10 1.255675e-09 1.6108337e-09 3.330984e-10 -5.790064e-10 -8.172291e-10 -4.1859097e-10
0.009380042 -0.003013133 0.0052924757 0.004131344 -0.0034634282 -0.0030766022 0.0024059387 -0.0046712738
-0.0023922122 -0.0045734667 0.004470666 -0.007648674 -0.007082705 0.001284083 0.00069419516 0.0015095896
-0.0017538656 0.0072808033 0.007659149 -0.0027335705 -0.0009323613 -0.0079835765 -0.0029966752 0.0028791835
-0.004360447 3.5137673e-05 0.006075051 -0.0018740254 -0.0076143923 -0.00059674896 0.008757433 -0.00017973714
-0.002044421 0.00026638 -0.0059344135 -0.0061823786 0.00036371913 -0.0043753376 0.008166571 -0.003750191
0.004311183 -0.0028724764 -0.002371665 0.0017141856 -0.0035559272 0.004587014 0.0038677498 0.0054391692
0.0032285897 -0.0026818705 0.0031936832 0.006390018 0.0070437887 0.0022652212 0.009310189 0.0051440476

att.out_proj.weight f4 [100, 100]
00000000: e283 94bd 193c 8b3d 481b d13d 04c5 313d
00000010: 7a5b 5f3d dafc a03b 71b8 bc3d 3b53 09bd
00000020: 2454 d3bd be9a 1ebd 66aa 83bd 8350 cf3c
00000030: 7cee 4a3d 5594 03bc 5bbd 6a3d d44b 32bd
00000040: 1641 c9bc 6462 edbc 92fa cc3d 6b57 db3c
00000050: 0b27 6bbc c5d8 babd 3446 83bd d26c b7bd
00000060: 301c 8fbd e957 53bc 2d8e 9dbd d131 463c
00000070: dc87 38bd cdcd 9abd 8fcb 12bd ab03 e0bd
00000080: 0161 7dbc 6d1d 54bd d633 0ebd 1169 bcbc
00000090: 0dd1 9d3c 0aec 36bb b342 113b 3f22 953d
000000a0: 8087 4dbc b794 49bd 0a53 82bd 913a 673d
000000b0: 71b8 403c 28d2 823d da4d 7dbc c051 8bbd
000000c0: 07be b9bd 61ef 8fbc a304 68bd 1efc 54bd
000000d0: 2387 d6bc fb62 47bc 3094 4abd 67dc babd
000000e0: d2b8 bebd 8ca8 a3bd 3039 67bd d478 203c
000000f0: 163f 00bd 9e34 923d 5890 a73c 6ff5 acbd
00000100: 9b38 753d 9eb9 3abd 2148 9b3d 726f b3bd
00000110: f3e8 3abd 4391 8cbd 1813 57bd b86a ab3d
00000120: 8dec 24bd 3425 febc 2992 28bd 441e bebc
00000130: 468c 38bc b7b1 4c3c cb3c 623d 8d93 833d
00000140: f4a0 85bd eb9f d8ba 91d4 ccbd 840a bc3d
00000150: 56d5 343d 1b76 083d 2293 53bd 6ff5 4dbd
00000160: c1a9 1d3d 7f0f a43d 27f6 753d d93c c2bd
00000170: 7597 2abd 6ab5 72bd 9c7f 813d 97f1 013d
00000180: cd68 933c d562 a13d da49 94bd 55b4 5f3c
00000190: f703 493d a7b3 9f3d ee84 373d 2171 d63d
000001a0: 7121 ccba 4924 c3bd eacb f23c 78a9 68bd
000001b0: b731 a1bd 35f8 b4bd ea2d 92bd 8b0a cd3b
000001c0: 36cd bdbd 281c 01bd 2dda 1a3c 07c8 8a3d
000001d0: dcf8 aa3b 57ea 51bd e732 b53c 3b48 aa3d
000001e0: 4b8c 64bc 5428 80bd 4779 883c 8209 c33d
000001f0: 1801 11bd 90b6 e5ba b61d 9ebd 2b02 423d
00000200: cdc4 b63d b2e8 893d edd2 adbd dba5 21bd
00000210: be81 1fbd b253 033d 8ff2 b73d e1a6 a53d
00000220: 1d48 283d 6abf 99bd 9c7f 8a3d 75e9 143d
00000230: 6410 8bbd d81b 60bd 12be 9abc 8c08 abbd
00000240: 43b8 aebd 28ca c8bd c24f bf3d 4767 4e3a
00000250: 1597 80bd 7f77 6f3c 4ddb f1bc 848e 40bd
00000260: 99f6 7e3d c395 0c3d 9ce0 64bd 09a8 443c
00000270: 4e87 533d 9d43 a9bc 9fff 87bd deef 80bd
00000280: dbd3 1ebd 4e8d 73bd 36d5 bc3d 6c32 04bd
00000290: b23f 843c a0cc 5a3d aad3 4dbc 77a8 663d
000002a0: 421a 113c 2ebc 39bd a4ff c6bc b2fc 303d
000002b0: 2aba 4d3d ecf3 aabd 41d2 3d3c 8094 203d
000002c0: 29cd cabd 4924 bd3d 37c0 74b9 b65b a43b
000002d0: daa8 373d d537 b03d 55e5 b5bd e480 a73d
000002e0: a50e 91bd a024 17ba 3da3 843d bf7e 403d
000002f0: efc1 30bd 4df9 06bd 3c1d ab3d 260a a23d
00000300: 6318 573c 4a3d c8bd 174a abbd ce4d 133c
00000310: 9b00 a0bd 0de3 9fbd 7266 3bbd 6ca2 1d3c
00000320: 8327 2f3c e4c8 b83d f573 38bd d4ba 17bd
00000330: 7ac7 c0bd 5796 eabc 6bb8 c83a 71c5 963d
00000340: 87ba ae3d 173a 123b 51fc 933d e340 0c3c
00000350: 8833 753d 3719 703b b4fe 943d 28fc 7cbd
00000360: 9158 af3c e78e c03c 759d 40bd 96ab 12bc
00000370: a582 8e3d 4944 843d 7e74 8dbd 9dad 103d
00000380: ad45 053c 474b ba3d f3c9 033d 973f 1a3d
00000390: 5cfd 8ebd b267 a93a 8ada a53d 6203 c73c
000003a0: ae97 803c 8893 993d 44c5 633c 7b58 c73d
000003b0: 821b 153d 4930 c13c 1370 a0bc 709f c23b
000003c0: f001 9cbc 1725 81bc 4447 e03b defb e83c
000003d0: d2c6 983d 2454 ce3b 08ec a8bd e268 19bb
000003e0: 38e6 b13d a9fc c63d dbf8 cf3c bcfd 01bc
000003f0: 655d acbd bd37 00bd c421 b63d d479 8a3b
-0.07251717 0.06798572 0.102102816 0.04340078 0.0545306 0.0049129548 0.09214867 -0.03352664
-0.10318783 -0.038721792 -0.06428985 0.025306946 0.049543843 -0.008030971 0.05730949 -0.043529347
-0.024567168 -0.02897758 0.1000873 0.026775083 -0.01435257 -0.09123377 -0.064098746 -0.08956303
-0.06987798 -0.012899377 -0.076931335 0.012096838 -0.04505144 -0.07558785 -0.03583866 -0.109381996
-0.015465022 -0.051785875 -0.034717403 -0.022999318 0.019264722 -0.0027911686 0.0022165 0.072819225
-0.012544513 -0.04921409 -0.06363495 0.056452338 0.011762724 0.063877404 -0.015460456 -0.06802702
-0.09069448 -0.0175702 -0.056645047 -0.05199825 -0.026187485 -0.012169595 -0.04945773 -0.0912407
-0.093125954 -0.07991132 -0.056451023 0.009794433 -0.031310163 0.07138942 0.02045457 -0.0844525
0.059868436 -0.045587175 0.07582117 -0.08761491 -0.045632314 -0.06863644 -0.052508444 0.08369964
-0.040264655 -0.0310236 -0.041155014 -0.023207791 -0.011263913 0.012493542 0.055233758 0.064246275
-0.0652484 -0.0016527151 -0.10001481 0.09181693 0.044148766 0.03331576 -0.05165399 -0.05028289
0.038491968 0.08010768 0.060049202 -0.09484262 -0.041648347 -0.05925504 0.06323168 0.03172454
0.017994309 0.07880179 -0.072406486 0.013653834 0.049076047 0.07797938 0.044804506 0.104707964
-0.0015573931 -0.09528405 0.02963825 -0.056802243 -0.078708105 -0.08836404 -0.07137664 0.0062573603
-0.092676565 -0.031520993 0.009451431 0.067764334 0.0052176546 -0.051248875 0.022118999 0.08314558
-0.013949464 -0.06257692 0.016659392 0.09523298 -0.035401434 -0.0017525721 -0.07720511 0.04736535
0.089242555 0.06733836 -0.084874965 -0.039464813 -0.03894209 0.03206224 0.08981811 0.0808847
0.041084398 -0.075072125 0.06762621 0.036355454 -0.06790236 -0.054714054 -0.01888946 -0.083512396
-0.08531239 -0.09804183 0.093413845 0.0007873666 -0.062788166 0.014615892 -0.029523516 -0.047010913
0.062246893 0.03432251 -0.055878267 0.012002953 0.05164271 -0.020662123 -0.06640553 -0.06295751
-0.03877626 -0.05946093 0.09220354 -0.03227465 0.016143654 0.0534178 -0.012562672 0.056313004
0.008856358 -0.045345478 -0.02429182 0.04320974 0.050226368 -0.08347306 0.011585773 0.03920412
-0.099024124 0.092354365 -0.00023341259 0.0050158156 0.044838764 0.08604399 -0.08881632 0.08178881
-0.07082871 -0.00057656504 0.06476448 0.046995874 -0.0431537 -0.032952596 0.083551854 0.07912092
0.013128373 -0.09777315 -0.08363741 0.008990718 -0.078126155 -0.078069784 -0.045751996 0.009621244
0.010690573 0.09022692 -0.04503246 -0.037043408 -0.09413047 -0.02863614 0.001531375 0.07361878
0.08531671 0.0022312456 0.0722586 0.008560392 0.059863597 0.0036636123 0.07275143 -0.061763912
0.021404536 0.023505641 -0.047025163 -0.008952042 0.06958512 0.06458337 -0.06906985 0.03532182
0.008134288 0.09096389 0.032175016 0.0376583 -0.06981918 0.001292458 0.08098324 0.024293605
0.015697327 0.074988425 0.013902012 0.09733673 0.036403187 0.023582594 -0.019584691 0.0059394166
-0.019043893 -0.015764756 0.006844433 0.028440412 0.07459797 0.0062966514 -0.082481444 -0.0023408462
0.08686489 0.0971616 0.025387218 -0.00793403 -0.08416251 -0.031303156 0.08893159 0.004225949

att.out_proj.bias f4 [100]
00000000: 509e e7ba c319 dfbb 7c4b 713a 15a3 4d3b
00000010: 8840 203a b030 7dbb a556 033c 50e4 cb3b
00000020: 86df 14bc 8dff c33a f6cb a839 23e3 56bc
00000030: bd2e 94ba ec4e e1ba b2f3 fabb 1084 943a
00000040: a98b 5e3a ab30 e33b a25f db3a 2244 b93b
00000050: 6ebc 05bb bb9f 4abb 919a c3ba fd05 c03b
00000060: d016 28bc fa40 81b9 2e7c 943b a94d 5d3b
00000070: e124 3cbb f81b f43b 992e 70bb 4ca4 093c
00000080: e9b5 a338 2574 f03a c5ac 0b39 a929 e83b
00000090: a17e 0fbb 0cfd a5bb 7084 ac3b b895 e9ba
000000a0: 0751 c8bb 3504 cdbb ae03 a2bb fe29 5f3b
000000b0: f424 cf3a e7ff e13a 018f c9ba 0c74 f2bb
000000c0: 5d0d b33b ba89 eebb 1f7b 383c a2fb b03b
000000d0: 46a2 56bb 4f33 8bba 9283 dabb de15 fb3b
000000e0: 0213 8c3b ddd4 913b 5483 46ba 0bff ddbb
000000f0: 5110 ebbb 7733 efbb 48f9 253b 5c6a 643b
00000100: 4781 16bc 0e9a d33b 17a1 c6bb 7e28 193b
00000110: 75a8 10bc 10b3 0a3c 21b0 66bb 79b6 27bc
00000120: be0d 70bb e4b5 dfba 78f7 0ebc f9fe 36bc
00000130: 5331 e9bb cf1a cf3b 8ef6 10bc 7787 573a
00000140: fa0f 13bc 8254 bcbb e645 f63b 67ec 85bb
00000150: 6ff0 893b 9a10 223b 1f59 583a e996 f3ba
00000160: 7b0b a03a ecf4 18bc a172 ad3b 5881 98bb
00000170: 97da af3a 853f 8039 b74d 13bc 3571 2e3c
00000180: f867 3a39 0135 b53b 43bf 7ebb 3ca2 c9bb
-0.0017671082 -0.006808491 0.00092046685 0.0031377722 0.00061131315 -0.0038633756 0.008016263 0.0062222853
-0.009086495 0.0014953479 0.0003219542 -0.013115677 -0.0011305433 -0.0017189658 -0.0076584453 0.0011330862
0.0008489439 0.006933292 0.0016736875 0.005653874 -0.0020406502 -0.003091796 -0.0014923384 0.005860089
-0.010259345 -0.0002465321 0.004531405 0.0033768213 -0.0028708505 0.007449623 -0.0036648868 0.008400988
7.806329e-05 0.0018345161 0.00013320435 0.0070850444 -0.0021895545 -0.005065566 0.005264811 -0.0017821109
-0.006113175 -0.006256605 -0.0049442863 0.003405213 0.001580386 0.0017242403 -0.0015377701 -0.007399088
0.0054642395 -0.007279602 0.011259823 0.0054010907 -0.003275053 -0.001062015 -0.0066685164 0.007662519
0.004274727 0.004450424 -0.000757267 -0.0067747883 -0.007173576 -0.0072998363 0.0025325585 0.0034853434
-0.009186096 0.0064575737 -0.006061684 0.0023370082 -0.008829226 0.008465543 -0.0035200196 -0.010236376
-0.0036629285 -0.0017067757 -0.008725993 -0.011169189 -0.0071164756 0.0063203345 -0.008847846 0.0008221785
-0.008975977 -0.005747379 0.0075156568 -0.0040870192 0.00420957 0.0024729134 0.0008253026 -0.0018584403
0.0012210453 -0.009335738 0.005293206 -0.004654091 0.0013416585 0.00024461388 -0.008990697 0.010647108
0.00017777074 0.00553 -0.0038871325 -0.006153373

classifier.weight f4 [1, 100]
00000000: f684 bbbd d7af 97bd 5e4c 623d 8ed5 8abd
00000010: f6db a5bd 0366 16bd 5c6a 603e f976 463e
00000020: 8b43 303b 30fe 0bbd fcd4 39bd 63e4 ea3c
00000030: a9cb 363d 3b7f 81bd 8e4c 18be be30 51bc
00000040: 3f9d 533d 951a 193c bff2 f83d cda3 5b3d
00000050: 4ef3 d3bd e5f3 2e3d 393f 1c3d b827 1abd
00000060: 9bfe 97bd 14a2 cfbd 3829 013e a66e e1bc
00000070: 8d64 53bc 8a3c 513e e520 03bd 10e4 193e
00000080: d1ae cd3c 0265 0fbd 2682 173e c020 883d
00000090: 178f 5fbe 3931 803d 61de eb3d 1a1d 953d
000000a0: 72eb 44bd 8278 61bc 3cc7 7fbe bdbc 053e
000000b0: b3ab 473e cf4c e7bb 412d 393d 1b04 9bbd
000000c0: 13c3 fd3d 7acf 4bbe 871c 693c 7730 3fbd
000000d0: 5a0d 92bb f6eb a0bc d0ff 21bc 67b5 2dbd
000000e0: 11b3 68bc 6b34 6dbd aeb6 1bbc b72e 53bd
000000f0: 2596 61bd 7d79 acbd 861b 0abd ddc7 6e3b
00000100: adc3 6bbc fef4 d73d e034 0bbe c03d 6fbd
00000110: f9ce 6abd 8505 2e3e bf9c 8abd 1bc7 d8bd
00000120: d0ac debd f886 a1be 5e0c c6bc 803a 82bb
00000130: 17b6 4cbe 4273 9f3d 2e65 8dbd 5ab4 e63d
00000140: c1f3 25be 75b7 9fbc d62c 9e3d 13ed 29bd
00000150: e00c 2d3e b707 013e 54c8 d23d ac8d 27bd
00000160: e2c1 c83c 254a 44bd 95c8 cbbc 5d41 10be
00000170: dd5b 5fbe c33e 3abe 4433 2ebd b866 df3d
00000180: 22a9 ccbd c506 1d3e 939b 013e 456b 68bd
-0.0915622 -0.07406586 0.05524861 -0.067790136 -0.08098595 -0.03671838 0.21915573 0.19381322
0.0026895727 -0.03417796 -0.045369133 0.028673356 0.04462782 -0.063230954 -0.14872953 -0.012767969
0.051663633 0.009344717 0.12155675 0.05362301 -0.10349141 0.042713065 0.03814623 -0.037635535
-0.07421609 -0.10138336 0.1261338 -0.027518582 -0.012902391 0.2043325 -0.032013793 0.15028405
0.025107773 -0.035008438 0.14795741 0.066468716 -0.21831928 0.062593885 0.11517025 0.07280941
-0.0480761 -0.013761641 -0.24978346 0.13060279 0.19499092 -0.007058717 0.045209173 -0.075691424
0.12390723 -0.19903365 0.014227993 -0.04667708 -0.004457158 -0.019643765 -0.009887651 -0.042409327
-0.014202849 -0.057911318 -0.009504003 -0.051558223 -0.05507483 -0.084216096 -0.033717655 0.0036435046
-0.014389914 0.105447754 -0.13594389 -0.0584085 -0.05732629 0.16994293 -0.06768178 -0.10584851
-0.10872805 -0.31548285 -0.024175819 -0.003974259 -0.19991337 0.077856556 -0.06904064 0.11264868
-0.16206266 -0.019496659 0.077233955 -0.041485857 0.16899443 0.12600599 0.10292116 -0.040906593
0.024506513 -0.047922272 -0.024875918 -0.14087434 -0.21812387 -0.18188004 -0.04252936 0.10908264
-0.09993197 0.15334614 0.12657003 -0.056742925
